assignment_3/output/assigment_3_model-1.pt (torch, 218743 bytes, 50 tensors)

encoder.0.weight f4 [8, 3, 3, 3]
00000000: f68a 51bd e088 d03d ee35 74bd 5e87 5b3c
00000010: 7a24 7cbe ab50 553d 077f cc3c 255e b5bd
00000020: bbf6 0c3d 20ab d9bc 7682 2e3c 1613 b1bd
00000030: d82f 0f3e 5d25 e5bd 373d c73d 2403 813b
00000040: b881 493d 35ec 033d f074 3c3d 0f97 6ebd
00000050: fd27 ce3d f21d 01bc c665 d4be 3ced 16be
00000060: 5021 41bd b111 b2bc b42b 253d 9fe9 93bc
00000070: 52b7 f63d 4dfe 39bd 9f98 b43e b5e3 8d3e
00000080: d78f 41bd 6547 12bb 54d5 003d 8205 1fbd
00000090: 0571 10be a80c ba3d 5ca6 d8bd e11b 873e
000000a0: 6cfa c83d c567 393d 3239 72bd dd47 2c3d
000000b0: 6287 f63c 7b81 2d3d be62 14bd cf7c b43d
000000c0: 5391 033e 99e8 58be fe22 92bb f8f8 e8bd
000000d0: f631 aebd 263d 813d 812c b33d a68d 27bd
000000e0: fdf6 3d3d dc0e b33d 236d fdbd 0d2d 163d
000000f0: 01f0 e4bb c059 873d 9113 1fbd 5c79 42bc
00000100: 926c f03d d8f4 1d3c 69cd 613e 5dd9 a83d
00000110: 3012 0ebd a9ce 1dbe 9e58 4e3c fab6 c8bc
00000120: 60b9 ab3d 036b 40be 0267 90bc bfb6 923e
00000130: 580d bc3d 7576 8bbc 5475 583d c357 713d
00000140: 72f0 8f3b 6c21 b73d 19ee 9cbc 3f47 8d3d
00000150: 694d 52bd f1be 9ebe 3680 a5bb dae9 ba3d
00000160: 3bb8 9bbd 4300 563d fb43 56bd 5b23 773d
00000170: 3bdb 1dbd df43 ca3d 9305 ee3d 77fc 513e
00000180: a876 21bc edc1 ab3d 8547 d33c f28a 2bbe
00000190: bde6 203e 6b05 c8bd fe0c ff3d 73f3 6f3e
000001a0: e9d5 5c3e 1841 a4bd 2159 95bd 6206 b0bd
000001b0: 7a3b d13c 05a5 90bd 2465 83bd 7baa bd3d
000001c0: 4899 b83e 1ebe fb3d 27db a4bd 1147 383e
000001d0: 7e76 fcbd 4b70 393c e10e 993d c9f4 453d
000001e0: 0f28 b0bd c085 6a3d 3445 d1bd 7dc2 15be
000001f0: 3d75 4f3d 2c57 01be 63b5 71bd 81ae 9d3d
00000200: 1319 23bd cf64 81bc e309 7c3e 9238 6a3e
00000210: b038 0d3e 76f8 2c3e 3007 e0bd cddc cbbd
00000220: 7759 3abd c410 01bd d93a 833d abda 4f3e
00000230: e101 183d 38e2 97bd 1f56 543e 58c7 afbd
00000240: 17d1 573d 64ae 1f3d 455d c0bc 6495 49bc
00000250: b4cf b8be 8957 75bd 41e5 7cbd d87b 9d3c
00000260: 578b dfbd b055 133c 6104 433d 82df 043d
00000270: 1c89 453d 148d d6be 5fde dcbc 6837 ed3c
00000280: 51b6 403d 01aa 5f3c 7d1b a0bc cf56 913d
00000290: c5fd 0abe c9ce f2bd 369a 623e 2082 3e3e
000002a0: f855 673d b019 d5bc 4991 23be 8b85 70bd
000002b0: cfc5 db3d 9944 b33c 24ad 9dbd 5532 3e3e
000002c0: a826 863e f987 34bd d25b c73d 403a 833c
000002d0: a160 fd3d 9cae babd a303 1bbd 89fd f93c
000002e0: 6a2f 77be 4493 ba3d 45aa 873d 0d2a bcbd
000002f0: ad0e 673c f34e 4b3d 2614 4a3c 1185 1dbb
00000300: ba02 a5be 3ce0 d9be 24fd c03d 5f8e dc3c
00000310: 4ee4 383d a00e 10bc 36e0 3c3c b5eb c3bd
00000320: 84dc ba3d a40a 4bbe 322e 0dbe eb89 37bd
00000330: 136f 443d be32 88bc c014 0a3d 0125 243d
00000340: 5265 4dbd 1305 34bd 9f73 f93c b6b1 6a3e
00000350: 5842 873c ffd3 193d 86b0 823d 6437 edbd
-0.051157914 0.10182357 -0.059621744 0.013398973 -0.2462329 0.052078884 0.024962915 -0.08855847
0.034414988 -0.026570857 0.0106512215 -0.086462185 0.13983095 -0.11188767 0.09728473 0.003937142
0.049195975 0.032207686 0.046009958 -0.05824953 0.10066221 -0.007880675 -0.41483897 -0.14738935
-0.04715091 -0.021736952 0.04032488 -0.018055735 0.12046684 -0.045408536 0.3527269 0.2771279
-0.047256317 -0.0022320386 0.031453446 -0.038823612 -0.14105614 0.09084445 -0.105786055 0.26388457
0.09813389 0.045264978 -0.059136577 0.04206072 0.030093852 0.04235981 -0.03622698 0.08812868
0.12848406 -0.21182479 -0.004459738 -0.11375612 -0.08505623 0.06310491 0.08748723 -0.04090657
0.046378125 0.087430686 -0.12374332 0.036664058 -0.0069866185 0.06608915 -0.03883702 -0.011869755
0.11739458 0.009640895 0.22051014 0.08244584 -0.034685314 -0.15410866 0.01259437 -0.024501313
0.08384967 -0.18790822 -0.017627243 0.2865505 0.091822326 -0.017024258 0.052846268 0.058921587
0.004392677 0.089419216 -0.019156503 0.06898355 -0.051343355 -0.31005052 -0.0050506843 0.09126635
-0.076034985 0.052246343 -0.052310925 0.060336452 -0.038539153 0.09876227 0.11622157 0.20506464
-0.00985495 0.08386598 0.02579094 -0.16752222 0.1571302 -0.097666584 0.1245365 0.23432712
0.21565975 -0.08020228 -0.072923906 -0.085949674 0.025541056 -0.07062725 -0.064157754 0.09261032
0.36054444 0.12292121 -0.080496125 0.1799586 -0.12327288 0.011318277 0.07473541 0.04832915
-0.086013906 0.05725646 -0.102182776 -0.14624973 0.050648917 -0.1263091 -0.059010874 0.076992996
-0.039818835 -0.01579514 0.24613146 0.22873142 0.13791156 0.16891655 -0.10938871 -0.09954224
-0.045495477 -0.03151013 0.06407709 0.20298259 0.037111167 -0.07416195 0.20735978 -0.08582944
0.052689638 0.03898467 -0.023481974 -0.012303684 -0.36095965 -0.059897933 -0.06174207 0.019224092
-0.10915249 0.008992597 0.047611598 0.032439716 0.04822646 -0.4190451 -0.026961504 0.028957084
0.04704887 0.013651372 -0.019544357 0.070966356 -0.13573368 -0.118558474 0.2212914 0.18604326
0.05647847 -0.026013225 -0.1597339 -0.058721106 0.10731088 0.021883296 -0.076990396 0.18573888
0.26201367 -0.044074986 0.0973431 0.016018987 0.12371946 -0.09115335 -0.037845265 0.030516403
-0.24139181 0.0911012 0.06624273 -0.09187708 0.01410262 0.04963584 0.012333905 -0.0024035613
-0.32228643 -0.4255389 0.09423283 0.026923357 0.045139603 -0.008792549 0.011528065 -0.09566442
0.09124091 -0.19828278 -0.13787153 -0.044809263 0.04795749 -0.016625758 0.033711195 0.040074352
-0.050145455 -0.04395015 0.03045064 0.22919354 0.016511127 0.03755569 0.063813254 -0.115828305

encoder.0.bias f4 [8]
00000000: e8e1 283e 2dd0 3f3e c5b9 27be e0e4 0d3e
00000010: cf3a d33d ca28 13be 9cf3 143d fd9b 583d
0.16492426 0.18731757 -0.16379459 0.1385684 0.10313951 -0.14371029 0.036365137 0.052883137

encoder.1.weight f4 [8]
00000000: d38c 843f 70c1 873f 7e70 723f e00e 7c3f
00000010: 49f8 823f 70de 713f 567b 5c3f b9bd 813f
1.0355476 1.0605907 0.947029 0.984602 1.0232021 0.9448004 0.86125696 1.0136024

encoder.1.bias f4 [8]
00000000: 9387 063e 4e6b 2e3d f6a0 833d 6fe3 d43c
00000010: 6795 b63d 5ad2 9e3e 5081 aa3e bc50 5a3d
0.13137655 0.042582802 0.06427185 0.025987355 0.08915215 0.3101986 0.33301783 0.05329965

encoder.1.running_mean f4 [8]
00000000: b7fc dfbd f48c 0e3f e5fd 043e 41a7 bf3e
00000010: cd88 fd3e 96c6 c1be 57c4 7e3e 5019 86be
-0.109368734 0.5568383 0.12987478 0.37432292 0.49518433 -0.37846822 0.24879585 -0.26191187

encoder.1.running_var f4 [8]
00000000: 2721 c33c b89c 183d 029b e83c fec8 963c
00000010: 728c 3c3d ab6a 923c 3691 603c 834f db3c
0.02381952 0.037258834 0.028394226 0.018406387 0.046032377 0.017873129 0.013706496 0.026771313

encoder.3.weight f4 [16, 8, 3, 3]
00000000: 313e 96bd d136 e5bd 8785 0bbd f018 34bc
00000010: 8b7b 35bd 0ac7 b9bd e85b debb f59f 50bd
00000020: 4b46 753d b109 0abc 49e8 92bc 87fb e3bd
00000030: 61c5 7fbc d55e ed3d 87c3 07bc d745 da3b
00000040: 39e4 bb3c 7dc3 d93c 5bbd ce3c 5164 173d
00000050: 5d28 4ebc 5be0 88bd 318a d1bd 9550 553e
00000060: 446b 973c dc40 9fbd 632c 2fbd 02b3 a5bd
00000070: 8a51 3dbd f342 6dbd 96a5 29bb 76ba 933d
00000080: 4f1b f5ba 0032 72bd 5119 0b3e 7967 0cbd
00000090: 6f1c 703d 884e 423e dac5 bd3c 0ef9 7d3e
000000a0: 74ff a43b 33a5 203e 4381 abbc 0002 0b3d
000000b0: 4531 303b 14cb 68bd 8aa7 833d 91c6 12bc
000000c0: 48f7 053c 88d9 05be 516a f5bc 9834 0cbd
000000d0: 5e67 8cbc 38bf 75bc 5a14 90bb 204c 38be
000000e0: 8ef3 f63d 4840 f7bc 4774 6cbd 6b24 cbbc
000000f0: fa62 81bd d0be aebd e6a0 6a3d 6d28 cabc
00000100: a989 a23d 8c52 d83c 841e 2e3d e24f 6fbd
00000110: cb18 323d 7e5b 40bc 7e8c fd3c 318c 08bd
00000120: e92a 95bd 811f 453d 73a6 85bd 7271 54bd
00000130: 790c a13e 1063 27bd b8bf 44bd 8f18 c43c
00000140: 59d7 88bd f6ec 9fba ce0d 25bd 0a65 c13c
00000150: da99 813d 9a00 c3bd 6970 2dbe 4c22 ec3c
00000160: d90f aebc fa03 88bd ef1f de3c a2f6 89bb
00000170: 6e9b 2f3d 30f2 81bd 4c6d 9d3d eda4 05be
00000180: 7f8a 17bd 07bc 8f3d 129a aabd c534 19bd
00000190: f77b 583d 7cb6 97bc 46b4 3fbd 7075 583d
000001a0: 2113 8e3d a030 c03c 8793 843d 30a8 8e3c
000001b0: 9a3c 973d 79c5 e2bd f10e 083d 2910 dbbd
000001c0: bf9c 10bd 52c5 d0bc b06d 9a3c 13df 38bd
000001d0: 8968 263d 3723 5c3d b9c5 5ebd 5174 293d
000001e0: fec4 fcbd ad25 4b3e 3c46 0cbe 0f4c 993c
000001f0: a584 d63c 7b6a b23d 5cd9 763d 4b64 383c
00000200: 1e61 14bd 05f1 e0bd 0e6a f9bc c674 9cbd
00000210: 0109 123d f22b f6bc 537a 2e3c 8330 b83c
00000220: a161 10bc 8950 cfbd 9fc2 6abd a8be 273e
00000230: ff4e 7a3e 2337 8c3a ab34 ebba 3396 61bb
00000240: 55ab 2abc 3478 c03d 9d84 093e 1607 98bd
00000250: d2aa 083e 5eaf 383e 0c03 9c3c 5829 763d
00000260: a6ec 63bd 2b00 e2bc b3d6 203d d759 3b3e
00000270: 06bc 3a3d 30dd 333e 8040 ec3d 82b2 09bd
00000280: de73 49bd 0e1c 9e3c 08a2 063d fa2b a7b9
00000290: af24 ab3c 0aab 89bd a1a3 223e 752d 3c3e
000002a0: dbf3 0abd 4ced 123b 3ba6 b13c f8bb c43c
000002b0: 99fd b4bd fbe8 a8bb 8f9d e83d f95a 093e
000002c0: 3c3f 0dbd 39a7 a6bb 969e 9d3d bcae 983d
000002d0: 6d66 c7bc 458e d33d d160 313e f9b7 14bc
000002e0: a326 593e 7058 123e bc3f 633d 8167 bcbc
000002f0: 10b1 52bd 07e5 223d 17fc 013e afbd 6a3d
00000300: 5476 c23d 51bd d4bb be61 ea3d ec66 4bbc
00000310: f5b5 47bd d72f 893d 8139 7c3d 10d0 893d
00000320: 8727 8ebb 59bd bf3d 65fd c13d 4993 493c
00000330: a64d d9bd 45ea 103d d6b5 b7bc 9626 3a3d
00000340: 7094 c3bc 9a36 e13d 81d1 96bd b795 f53d
00000350: 7e58 2b3e f3ab 983c 1e94 84bc 5819 753d
00000360: fb0b 15bd 3ea6 dfbd 189c 5c3d 499d e2bd
00000370: 48e9 2dbe d0ee aebd 397e 9a3d 570f 94bd
00000380: 9aa3 88bc 75c6 36bd c36c 98bd f705 eabd
00000390: 6cc5 61bc e2c2 d4bd eac7 1bbe c042 a63d
000003a0: 9425 50bd eaf5 483d 6d1b 933c 770a cdbc
000003b0: c33d d1bd fb7c 19bd 2b2d 7dbd 7016 d13c
000003c0: 2fcc 2dbd 5fa9 62bc ba1e dcbd 400c 3fbd
000003d0: a774 7dbd e4d8 413d ce0a 863c e9ba d6bd
000003e0: 284b 53bc 99df 06be 3e00 5cbc 0b9b 07bd
000003f0: 20b3 93bd c276 37bd a3a2 a739 5b57 a63d
-0.07336081 -0.11192096 -0.03406289 -0.010992274 -0.044307273 -0.09071167 -0.0067858584 -0.050933797
0.05988149 -0.008425162 -0.017933028 -0.111319594 -0.015611024 0.115903534 -0.008286363 0.0066611576
0.022935973 0.026582474 0.025236776 0.036960904 -0.012582866 -0.066834174 -0.10231436 0.20831521
0.018483765 -0.07776043 -0.04276694 -0.08090784 -0.04622034 -0.057925176 -0.002588605 0.07213299
-0.0018700155 -0.059129715 0.13583876 -0.034278367 0.058620866 0.1897527 0.023165632 0.24802038
0.005035335 0.15688019 -0.02093566 0.033937454 0.0026884836 -0.056834295 0.0642844 -0.008958475
0.008176632 -0.13071263 -0.029957922 -0.034229845 -0.017139133 -0.014999203 -0.0043969573 -0.1799779
0.12058173 -0.030182019 -0.05772808 -0.024797639 -0.063177064 -0.08532488 0.05728235 -0.02467748
0.07936413 0.026406549 0.04250957 -0.05842579 0.043480676 -0.011740563 0.030950781 -0.033336822
-0.07283575 0.048125748 -0.06525888 -0.051866002 0.31454828 -0.040865958 -0.0480344 0.023937492
-0.06681699 -0.0012201357 -0.04029637 0.02360775 0.06328173 -0.09521599 -0.16937412 0.028824948
-0.021247791 -0.066413835 0.027114836 -0.004210309 0.04287284 -0.06345022 0.07686862 -0.13051195
-0.036997315 0.07018285 -0.08330168 -0.03740384 0.052852597 -0.018519633 -0.04680278 0.052846372
0.06937242 0.023460686 0.06473451 0.017414182 0.07384606 -0.11072821 0.033217374 -0.10696442
-0.035305735 -0.025484715 0.018851131 -0.045134615 0.040627036 0.05374452 -0.05438778 0.041370694
-0.12342261 0.19838591 -0.13698667 0.018713025 0.026186297 0.08711716 0.060265884 0.01125438
-0.03622543 -0.10983471 -0.030446079 -0.0763946 0.035653118 -0.030050252 0.010649282 0.02248407
-0.008812339 -0.10122783 -0.05731451 0.16381323 0.24444197 0.0010697584 -0.0017944773 -0.00344218
-0.010416825 0.09397927 0.13429494 -0.074232265 0.13346413 0.18035647 0.019044422 0.060098022
-0.055645607 -0.02758797 0.039267253 0.1829599 0.04558947 0.17564845 0.1153574 -0.033617504
-0.049182765 0.019300487 0.03286937 -0.00031885487 0.020891516 -0.06722076 0.15882732 0.18376715
-0.033923965 0.0022419272 0.02168571 0.024015412 -0.088374324 -0.0051547266 0.11358177 0.1341361
-0.034484133 -0.0050858525 0.076962635 0.07455203 -0.024340833 0.1032987 0.17322089 -0.009077066
0.21206145 0.14291549 0.055480704 -0.022998573 -0.05143839 0.0397692 0.12693821 0.057309803
0.094952255 -0.006492295 0.11444424 -0.012414675 -0.048757512 0.06698578 0.061578277 0.06729138
-0.004338208 0.09362287 0.09472159 0.012303182 -0.106105134 0.035379667 -0.022425573 0.045446955
-0.023874491 0.109967425 -0.073641784 0.119914465 0.16732976 0.01863668 -0.016183909 0.059838623
-0.03638838 -0.1092038 0.0538598 -0.11065156 -0.16983521 -0.085416436 0.07543606 -0.07229488
-0.016679574 -0.044622857 -0.0744262 -0.11426919 -0.013779979 -0.103887334 -0.1521298 0.081182
-0.050817087 0.049062647 0.017957414 -0.025029404 -0.10216858 -0.037472706 -0.061810654 0.025523394
-0.042431053 -0.0138343265 -0.10748048 -0.046642542 -0.061878826 0.047325984 0.016362574 -0.10484869
-0.012896337 -0.13171233 -0.013427792 -0.033106845 -0.072119 -0.04479099 0.00031973896 0.081221305

encoder.3.bias f4 [16]
00000000: 39b8 7d3d b73b 313d 064e d43c 0467 833c
00000010: c5df 8bbc 2c90 20bc eeb3 99bd 1fdf da3d
00000020: 08fb 933d 478b d43c 9e53 cb3d caa6 bfbd
00000030: b9bd 8d3c 4735 c4bd bf15 51bd 8f9f c13d
0.061943267 0.04326984 0.02591611 0.016040333 -0.017074475 -0.009799998 -0.07505022 0.10687088
0.07225615 0.025945319 0.09928058 -0.09357984 0.01730238 -0.09580474 -0.05104613 0.094542615

encoder.4.weight f4 [16]
00000000: 5e0b 733f 4d22 883f e147 693f af7c 7e3f
00000010: 1e4a 673f adc0 723f 0054 7e3f 71c4 803f
00000020: 6e2b 7c3f 49ab 763f 730c 843f b02f 7b3f
00000030: ed03 7f3f 3946 813f 6709 823f cbe0 793f
0.9493922 1.0635468 0.91125304 0.99409 0.9034747 0.9482525 0.99346924 1.0059949
0.9850377 0.9635511 1.0316299 0.9811964 0.99615365 1.0099555 1.0159119 0.9760863

encoder.4.bias f4 [16]
00000000: f53b a53d 62a4 973e 60c3 41be 65ea df3d
00000010: c5c2 d7bb 072b d33d 81c5 ea3d 2c52 d53d
00000020: 2738 a73e f3a8 993d 7ce7 813e 658b 233e
00000030: c215 5a3e d6af 743e ef58 273e 0936 f43d
0.080680765 0.29617602 -0.18922186 0.10933379 -0.0065844976 0.10310941 0.11463452 0.10416064
0.32660028 0.07502928 0.2537192 0.15971144 0.21297362 0.23895201 0.16342519 0.11924369

encoder.4.running_mean f4 [16]
00000000: 52f7 4cbd 57be 7bbc d9a0 c13f 4d44 39bf
00000010: fc71 0c3e adbf 1b3d b921 b7be cc46 563d
00000020: bc99 123c a4d3 88be a77e 9b3e 5263 1dbe
00000030: a778 423e ad16 7cbe 2b59 cb3c 4d4e 5c3e
-0.05004055 -0.015365205 1.5127212 -0.72369844 0.13715357 0.038024593 -0.35767916 0.05231361
0.008947786 -0.2672397 0.30370066 -0.15369919 0.18991338 -0.24618025 0.024822792 0.21514244

encoder.4.running_var f4 [16]
00000000: c092 5c3e c074 9e3e b736 2a3f f110 e73e
00000010: 8e62 1c3f 40c0 603e c243 ba3e 8eaa 823e
00000020: 4529 273e ce43 133f 97b8 003e ed6b 583e
00000030: 6925 113e 6513 803e 1d49 893e 71c4 3b3e
0.21540356 0.30948448 0.6648974 0.45130113 0.6108788 0.21948338 0.3637982 0.25520748
0.16324337 0.57525337 0.12570415 0.2113492 0.14174427 0.25014797 0.26813594 0.18336655

encoder.6.weight f4 [32, 16, 3, 3]
00000000: e5c1 2fbd 158a dbbc d58c 603d 65b0 4fbd
00000010: 68cd 0abc 8ab0 8e3d 121f 0fbd 345f 7dbc
00000020: 513f b5bd 7fb8 073c ee5f a9bd a23f 1fbb
00000030: 52fb 8c3d cdd1 85bd ebfc debc fb5c 89bc
00000040: eaa2 823d 0a6f 2abd aaf3 8e3b 273f 2ebd
00000050: 7d2f 96bc 69aa b53d 88c8 fa3c 8622 af3d
00000060: 0269 c23d c563 213d a1cf 943b cd88 50bb
00000070: 0c59 8ebd 3ce6 f9bc 6d98 abbd 6a66 a63c
00000080: 0a7d 6cbd e8ab 06bd d9fd 3dbd beec 7ebd
00000090: 2cbc 5f3d e419 16bd 8443 fc3c 6e95 fa3c
000000a0: 614c c5bc 0cbc ef3c 2154 8a3d 3951 c23d
000000b0: 270c 05bc 6241 46ba 553d 353d 9d58 9cbd
000000c0: 25bc 45bd 5e1d 183d 69f9 18bd 5af1 f6bb
000000d0: dd34 653d 37eb 5b3d 84be 7e3d 6ccd fbba
000000e0: 660b ab3d e413 903d e51f 983d 7302 ea3c
000000f0: d700 cabc 67ec 0c3d 402b d93d bc34 933d
00000100: bcc2 c63c 2e2f 563d f84a 033c 5be1 b53d
00000110: e367 35bc 4c11 12bc 9b61 b73d 6ef1 8a3c
00000120: f839 5d3d 1220 0d3d 5775 58bc fef1 313c
00000130: a9e8 44bd edcd b6bd eb3e bb3c 9171 b3bc
00000140: d27c 6b3d 851a 5b3c 4d74 19bd d3dc bf3c
00000150: 386a 71bb 9a49 403d b60b c1bc 529b 76bd
00000160: de8f ac3d 8979 3e3d 0122 43bd afc7 413d
00000170: 473a 10bb d1f8 c0bc ec83 b8bc af1f 243d
00000180: 754d a33d 2571 89bd e584 443c b748 663c
00000190: 8144 773c f768 21bd b7e7 1e3d a2eb 2dbd
000001a0: 12c2 9cbd 6921 9b3b 7c49 09bd 9df0 de3c
000001b0: 5e08 8abd 393b 84bc 3f86 78bd e92d 3b3d
000001c0: ae26 bf3d 159c d53c 71d3 1cbc f9e8 ff3d
000001d0: 6b67 143d 6df3 80bd 4372 09bc 09af c3bd
000001e0: 61e6 76bd 0a20 1eba edd9 d5bb 8399 ae3d
000001f0: 839e 38bd 20d2 c43c a8d6 e0bc 2794 163d
00000200: 7168 d4bd f815 a6bc 3ec1 82bd d57b f33c
00000210: 1895 1a3d 9855 54bc 70ca 203d ec8f adbd
00000220: d923 5e3c 0617 a53d d3b4 5dbd b1e6 9d3d
00000230: d672 3e3d d255 0fbd ca30 99bb 7e56 97b9
00000240: 501d 04bd 5d56 7d3d a189 b9bc 1948 8fbd
00000250: e429 1e3d 1756 3e3a f36f c6bd 955f 373d
00000260: 25ca 3abd af5a b23d a022 2c3c bed5 77bc
00000270: 210b 3bbd 88a5 1a3e fe09 03bd accb 14bd
00000280: dcd1 95bd 59ce 8bbd d685 64bd 23d8 8bbd
00000290: 15e3 40bd c05c b93d ca52 86bb b950 e63c
000002a0: cb16 0dbc 78e8 10bd a690 a33c 864e 1b3d
000002b0: 74cb 94bd 1331 0abd 2c3c 8bbd db08 923d
000002c0: 879f 813d d774 c5bd e006 82bd 51cd 113d
000002d0: d1e1 113d bdb2 b0bd 713c acbb 176f e6bc
000002e0: 5d7e 433d 2638 153d 3bd5 1ebd a1e6 85bd
000002f0: d287 80bd b133 89bd a85a 24bd 138a 4abb
00000300: d262 283d 4418 0bbc d5af a23b cfc2 323d
00000310: c4fb 70bc cc71 453d 2101 80bb 2e92 08bd
00000320: 84ff 5fbd be3c 30bd d229 963c aa43 74bd
00000330: a43f f9bc e4ef 603b 52b7 a3bd d137 a53c
00000340: 282d 8d3d c196 5b3d 8d72 273d 9b4e 9c3d
00000350: 1e3d 663c 25a3 a2bd 270e 293d 3674 fd3c
00000360: 459a a9bc 673d 24bd 9dc0 4ebb e46d 4cbd
00000370: 4650 123e 9b4d a53d 267e fd3c 1135 2c3d
00000380: 779a 063d 1d7e 413d 82e9 14bc f49e 97bc
00000390: 5f94 5d3d 0657 243c 4145 03bd 6a81 193d
000003a0: e743 74bd 6410 ccbd ca58 74bc 18f6 173d
000003b0: d527 903c fa77 c13d cfdf d6bd a85d a0bb
000003c0: d52c 35bd f6fc 42bd f512 6dbb f6e7 f9bb
000003d0: ba94 84bc 8bc8 c3bc 750e 57bd 29f5 9e3d
000003e0: c126 653c 5023 8f3c 05dc 9f3d 652e b73c
000003f0: c9d3 92bd 3d5a 15bd 0640 ffbb 6e87 da3c
-0.04290952 -0.026799241 0.054821808 -0.050705332 -0.008471824 0.06967266 -0.03494174 -0.015464593
-0.08849967 0.008283733 -0.0827025 -0.0024299403 0.06883873 -0.06534157 -0.02722021 -0.01676797
0.0637873 -0.0416098 0.004362543 -0.042540696 -0.018333191 0.08870394 0.030613199 0.08551507
0.09492685 0.03940179 0.004541353 -0.003181982 -0.06950578 -0.030505292 -0.08378682 0.020312507
-0.057736434 -0.032878786 -0.046384666 -0.062237494 0.054622814 -0.036645785 0.030793913 0.030588832
-0.024084272 0.029264472 0.067543276 0.09488148 -0.008120573 -0.00075628434 0.044247944 -0.07634089
-0.04827513 0.03713738 -0.03734723 -0.0075360956 0.055958617 0.053691115 0.06219341 -0.0019211001
0.083517835 0.07035044 0.074279584 0.028565621 -0.024658604 0.03440514 0.106039524 0.07187793
0.024262778 0.052291088 0.008013479 0.08880874 -0.011072132 -0.008915257 0.08954164 0.016960826
0.05401036 0.034454413 -0.01321157 0.010860918 -0.048073445 -0.08925996 0.02285715 -0.021904739
0.057492085 0.013373022 -0.03746443 0.023420727 -0.0036836993 0.046945192 -0.023565155 -0.06020672
0.08425878 0.046502624 -0.04763985 0.047309574 -0.0022007392 -0.023556145 -0.022523843 0.04006928
0.07973758 -0.06711034 0.011994575 0.0140554225 0.015092016 -0.039406743 0.0387952 -0.042461045
-0.076542035 0.0047342074 -0.033517346 0.027214343 -0.06739877 -0.01614152 -0.060674902 0.04569808
0.093335494 0.026075402 -0.009571896 0.12495608 0.03623144 -0.0629643 -0.0083890585 -0.0955487
-0.0602783 -0.0006031996 -0.006526223 0.08525374 -0.045073044 0.024025977 -0.027446106 0.036762383
-0.10371483 -0.020274147 -0.06384514 0.029722134 0.037739843 -0.01295986 0.03925556 -0.084747165
0.013558351 0.08061032 -0.054127526 0.077100165 0.046496235 -0.034993954 -0.0046750056 -0.00028865406
-0.032254517 0.06184994 -0.022648634 -0.069961734 0.03861417 0.0007260753 -0.09689321 0.04476889
-0.045602936 0.08708703 0.010506302 -0.015126644 -0.04566491 0.15102208 -0.03199195 -0.03632705
-0.07315418 -0.06826467 -0.0557917 -0.06828334 -0.047091562 0.09050894 -0.0040992247 0.028114663
-0.008611391 -0.03537795 0.019966435 0.037916683 -0.07265368 -0.033738207 -0.06798586 0.07130595
0.063292556 -0.09641426 -0.063489676 0.035596196 0.035615746 -0.086278416 -0.0052562286 -0.028129144
0.04772793 0.0364305 -0.03877757 -0.065381296 -0.06275906 -0.066993125 -0.04012552 -0.0030905053
0.041109867 -0.008489672 0.0049648085 0.043642815 -0.014708463 0.04820423 -0.0039063846 -0.033342533
-0.054687038 -0.04302668 0.018330488 -0.059634842 -0.030425854 0.0034322673 -0.0799395 0.020168217
0.068933785 0.053610567 0.04088073 0.0763218 0.014052657 -0.079412736 0.041273262 0.030939203
-0.020703444 -0.04009762 -0.0031547912 -0.049909487 0.14288434 0.08071443 0.030943941 0.042042796
0.032862153 0.04723941 -0.009088876 -0.018508412 0.054096576 0.010030514 -0.032048468 0.037476934
-0.05963507 -0.09964064 -0.014913747 0.037099928 0.017597118 0.09446712 -0.10491907 -0.004893977
-0.04423221 -0.047604524 -0.003617463 -0.007626529 -0.0161842 -0.023899337 -0.05250402 0.07761604
0.01398629 0.017472893 0.07805637 0.02236099 -0.07169301 -0.03646301 -0.0077896146 0.026675906

encoder.6.bias f4 [32]
00000000: fe90 0e3d aa33 e5bb cba6 03bd 0181 ee3b
00000010: db51 c63c 46b9 c8bc 7f13 63bb ecf3 b7bb
00000020: 96c6 943c 8e12 9bbd b731 9abd 63f8 0ebd
00000030: 508c f3bc 763e 343d e0b2 8f3c 08f6 45bd
00000040: c667 6ebd 5b09 6b3d bbb9 fe3c 3bea afbc
00000050: 83ec 233d c0c5 9b3d 0014 e2bc 2bb2 55bc
00000060: e32a 7ebd 7618 b13c e0a0 7abd 40aa a5bb
00000070: a013 2bbc f8a7 183d 98e9 273d 8e1a 5dbd
0.034806244 -0.006994684 -0.032141488 0.007278562 0.024208954 -0.024502408 -0.0034649072 -0.0056137946
0.0181611 -0.075718984 -0.075290136 -0.03490485 -0.029729992 0.04400488 0.017541349 -0.048330337
-0.058204435 0.05738197 0.031094423 -0.021473994 0.040020477 0.07606077 -0.027597427 -0.013042967
-0.06205262 0.02161811 -0.06118858 -0.005055696 -0.010441691 0.037269562 0.040994257 -0.053980403

encoder.7.weight f4 [32]
00000000: aaa3 753f edc0 7e3f fe7d 803f 34a6 813f
00000010: aa5a 753f 85dc 793f 3e60 813f 9607 7c3f
00000020: 284b 823f 4152 823f f975 763f 7e8f 723f
00000030: 0c0f 823f 2987 813f b09b 813f c56c 813f
00000040: 5550 823f 4345 7d3f 1a40 723f 8d51 823f
00000050: 1012 713f b535 813f a487 853f dd51 7d3f
00000060: cddf 7b3f 4b1c 763f 2e59 723f 597c 8a3f
00000070: d30a 843f 04ac 7a3f de72 803f 4f0a 803f
0.95952857 0.9951313 1.003845 1.0128846 0.9584147 0.9760211 1.0107496 0.98449075
1.0179186 1.0181352 0.9627376 0.947502 1.0160842 1.0119373 1.0125637 1.0111319
1.0180765 0.9893381 0.9462906 1.0181137 0.94168186 1.0094515 1.0432019 0.9895304
0.9838837 0.9613692 0.9466733 1.0819198 1.0315803 0.97918725 1.0035055 1.0003146

encoder.7.bias f4 [32]
00000000: 8a19 4eb9 cfe8 3b3d 3e6f 803d ffde 793d
00000010: 05ce b23d 68e6 1d3d 8453 603d bc32 0b3d
00000020: d336 723d 5cf1 e73d 985e 913d b471 53be
00000030: 1840 c83d 241f 9a3d 941b ab3d cd01 d33c
00000040: 06bc 953d 87e7 4ebd 6d01 e73d 9fc0 e73d
00000050: 08cb fe3c 8861 173e 5e01 5f3d 9625 abbb
00000060: 1eed 6b3d a317 b9bd 9e94 4c3e 43fe 67be
00000070: 78b6 043e f0a0 343d 3d16 973d 7e29 40bd
-0.00019655205 0.04587632 0.06271218 0.06100368 0.08730701 0.03854981 0.054767147 0.03398393
0.059134316 0.113253325 0.070981205 -0.20648843 0.0977785 0.07525471 0.083548695 0.025757695
0.07311253 -0.05051377 0.11279569 0.113160364 0.031102672 0.14783299 0.054444663 -0.0052229865
0.05759918 -0.090377115 0.19978568 -0.22655587 0.12960231 0.044098794 0.073772885 -0.04691457

encoder.7.running_mean f4 [32]
00000000: 5e9b 883e b7a4 81be 09cf 09bf 9561 02bf
00000010: 37a0 283e 1ec0 8cbe 90a4 d9be 905d 62be
00000020: 22ba c73b 4cb1 e3be 06aa 613e 6d76 6b3f
00000030: 5a88 b6be 9f87 edbe 5a8e 93bb b707 bdbd
00000040: da64 3abc 44b2 6c3f faec 943e 5cfb afbe
00000050: dbd5 e53e e2ac 24bf a865 ad3d dcbb 533f
00000060: 81f8 d4be cc11 513f 7269 c0be bd8c b53f
00000070: 434d aabd 7ad9 9d3e c9c9 5bbe 689d 9e3e
0.26681036 -0.2532098 -0.53831536 -0.5093015 0.16467367 -0.27490324 -0.42508364 -0.22106004
0.006095187 -0.44471204 0.22037515 0.9197758 -0.35650903 -0.46392533 -0.0045030536 -0.09229987
-0.011376584 0.9245951 0.2908705 -0.3437146 0.4488972 -0.643263 0.08466655 0.82708526
-0.41595843 0.8166778 -0.37580448 1.4183575 -0.08315518 0.30829984 -0.21463694 0.30979466

encoder.7.running_var f4 [32]
00000000: 050c 9d3e 626d cb3e 4bbc 043f 93a9 933e
00000010: f77e ff3d f266 bd3e 589b 253f 9973 883e
00000020: ca22 9e3e f82d 923e 2cf4 d63d 68fe a03e
00000030: fae0 483e ff8f 733e 8f00 b43e 248f ce3e
00000040: b341 8e3e 06db e43e 3963 953d 718c d43e
00000050: fcde 843e f429 ba3e b024 213f 0062 be3e
00000060: c444 bd3e d59b 723e ab53 bf3d 9f9b 963f
00000070: 03f8 5b3e 51a0 353e 281d c23e d63d a83e
0.30673233 0.3973189 0.5184981 0.28840312 0.124753885 0.36992604 0.6469016 0.26650694
0.30885917 0.28550696 0.10495791 0.31444097 0.19617072 0.23785399 0.35156676 0.40343583
0.277845 0.44698352 0.07294316 0.41513398 0.25951374 0.36360133 0.62946606 0.37184143
0.36966527 0.23692258 0.0934213 1.1766242 0.21481328 0.17736937 0.3791287 0.32859677

encoder.9.weight f4 [64, 32, 3, 3]
00000000: d601 863c 165e 72bc 36a0 8bbc c5c3 083c
00000010: 2edd 193d be17 813d 33bd 243c 64d7 423b
00000020: 4a9b b4bc 7b3d d0bc c524 f9bc 9b69 b83c
00000030: 5073 8bbd ad3f 06bd b9fd 833c 1bea 713c
00000040: 42f4 773c adf3 64bd 260d e63c f282 123d
00000050: 2c22 6fbc 9b30 893d 63d6 7b3c 4b8b 2b3d
00000060: d21a d3bc 5ca2 2fbc 31ae 9dbc e5af 623d
00000070: d4eb d2bc 7102 b93c 0580 eb3c 678c 983d
00000080: ef1c 1cbd 26e5 203d 79a7 9d3b 5a0e 18bd
00000090: e49d a2bc fd03 f63c d415 3c3c 922c 553d
000000a0: ef6f feb9 8c78 f5bc f74d 51bd 11d9 3e3d
000000b0: 8df3 09b9 4646 19bb 2295 5bbb 5c07 063d
000000c0: 5212 543d 4182 423d f12d 113d c66d 533b
000000d0: f945 8d3d 8987 85bc cccd 05bd b822 a4bc
000000e0: 970e 07bd 85c6 50bd 49a5 c5bc e474 983c
000000f0: 2f39 003d b516 2bbd 9c11 83bc 66bc 3e3d
00000100: 59d3 5a3c 5a4e 693b 01e3 7bbc 1de5 26bc
00000110: 3584 f93b 9c0a e23c f3d7 1bbd 2732 9bbc
00000120: 2027 f2bb 6c70 c53a b08c 7cbc e284 91bc
00000130: 14c5 353c 1393 1fbd 633a 07bd b1c7 e8bc
00000140: a81b b23c a0bc c83c a37e 9fbd dc90 0abd
00000150: b27f a63c 4db2 a93d f4eb 8e3c ffa7 c6bb
00000160: 2093 cabc 26dd 36bc 4051 813c 8918 9dbb
00000170: 266e 08ba 2322 493d c04b e93c 762c 40bc
00000180: 6259 173d 003c 283d 0b0e 26bc 118c 283d
00000190: 8429 93bc 945c 99ba c620 583d bba7 ce3d
000001a0: 22e1 b4bc cc91 dd3b 432b 3e3d 0a18 573c
000001b0: 95c4 113c e550 213d 8784 9cba b6e5 07bd
000001c0: c9cd f6bc 31f8 01bc e0f4 94bd 6086 ab3b
000001d0: b468 0e3d 4495 c6bc e75b 64bd 800b 24bc
000001e0: 4a7b b6bd 7500 d83c 7ce6 c6bc 1d8e 28bd
000001f0: acad 2ab8 1f77 1abd 9541 00bc 9b0a 033a
00000200: 748f f0bc a6c3 1cbc adb1 ac3d de44 083d
00000210: 423e 82bc 1211 cb3c 0da6 39bd d32e 833c
00000220: 70e5 113d 3302 eebc 630c 883b ca12 9cbc
00000230: 9669 5b3b 5efe 533d c577 463d ad90 803b
00000240: 8247 a7bb 12bc b03c d83b 31bd b418 463d
00000250: 67e8 4e3d 7b17 e53a 53ca 44bd 5dfd ccbb
00000260: 8658 253d bd35 19bd 108a 773c a439 cfbc
00000270: ae7c 2b3d a7c0 ee3c e432 7dbb 69ea 323d
00000280: 719a ab3d 26e4 583b 7db1 6fbb 1415 dc3b
00000290: a41f fcbc defe 9f3c ca2b 653d 1aa1 ce3c
000002a0: ca1a 073d e890 9f3c 2438 a5bc 22de 95bc
000002b0: abf2 c03c c9d1 1f3c 115d 213d 2a15 893d
000002c0: 2265 283d 90b2 733d 92d1 8d3c c4ef 5a3b
000002d0: e0b8 d93a 763c 26bd 6ef6 133d b0ef 263d
000002e0: c15b e33c ec6e 363d d5e6 f2bc 23e5 113d
000002f0: 6679 0abd e0a5 763c da1b 1c3a 237a 273d
00000300: 1496 e73b cf66 c93d 2fd8 ba3c 38d8 873d
00000310: 3a12 6f3d 3d87 c83c 065a 01bd 0e74 f4bc
00000320: 9954 6a3c a792 3fbd 3e1b ea39 8ccc cb3c
00000330: 7295 75bd f9ff 48bc 6ea2 12bd 2cda 043d
00000340: a12a 303b 5194 033d ac99 123c 1dd9 71bc
00000350: 7bcb d4bc 3024 833b 79da 5a3d 5bec 163d
00000360: 72c6 1c3d b0c2 b73c 59f8 f43c d2a1 8d3d
00000370: 38a4 8b3d 71cb 42bc f01a 453d f62d 913d
00000380: f6ff 46bd 7780 a9bd 13a3 233c 526d a63b
00000390: 0df8 6f3c c0c3 73bc e0c0 063d 9c05 663c
000003a0: a3da 4d3c 1a06 b0bc 8ce3 513c 5276 d8ba
000003b0: f8bf b5bc 4f2e 1f3d 77fe 463c e2e4 08bc
000003c0: 8287 d73c 3bdb 27bd 6e77 a53c 1050 383b
000003d0: aad6 783d 17e4 823c 1acc ba3d f906 2b3d
000003e0: 95a9 51bc c794 be3c 02ee c0ba b461 583c
000003f0: da39 5fbc 29f5 083d e9b8 6c3b f5d4 963d
0.016358297 -0.01479294 -0.017044168 0.008347456 0.03756445 0.063033566 0.010054874 0.0029730434
-0.022046704 -0.025419941 -0.03041304 0.022511294 -0.068091035 -0.03277557 0.016112195 0.014765288
0.015133919 -0.05589645 0.028082442 0.03576941 -0.01459555 0.06698724 0.015370938 0.041880887
-0.025769625 -0.010719862 -0.0192481 0.055343527 -0.025747217 0.022584172 0.028747568 0.074486546
-0.03811353 0.039281033 0.004811224 -0.03712306 -0.019850679 0.030031199 0.011479814 0.05204446
-0.00048530052 -0.029964708 -0.051099744 0.04659373 -0.00013156068 -0.0023387833 -0.0033505638 0.032721862
0.051775284 0.0474875 0.035444204 0.0032261475 0.06898112 -0.01629998 -0.032666966 -0.020036086
-0.0329729 -0.050970573 -0.024126666 0.018610425 0.031304535 -0.041769702 -0.015999608 0.04656639
0.013356053 0.003559968 -0.015373946 -0.010186461 0.0076146373 0.02759295 -0.038047742 -0.018944813
-0.007389918 0.0015063412 -0.015414402 -0.017763559 0.01109435 -0.03895862 -0.033014666 -0.028415533
0.021741703 0.024504006 -0.07787826 -0.033829555 0.020324562 0.08285961 0.017446496 -0.006062507
-0.024728358 -0.011161124 0.015785813 -0.0047941846 -0.00052044017 0.04910482 0.028478503 -0.01172935
0.036950476 0.041072845 -0.010135184 0.041149203 -0.017964132 -0.0011700564 0.05276563 0.10090586
-0.022080008 0.006761765 0.046427976 0.01312829 0.008896966 0.039383788 -0.0011941352 -0.033178054
-0.030127423 -0.007932709 -0.07273269 0.0052345246 0.03476782 -0.024241097 -0.055751707 -0.010012507
-0.08910234 0.026367405 -0.024279825 -0.041151155 -4.0692903e-05 -0.03771126 -0.007828136 0.0004998834
-0.029365279 -0.009568131 0.084323265 0.033268802 -0.015898827 0.024788413 -0.045324374 0.016013538
0.0356192 -0.029053783 0.0041518672 -0.019051928 0.0033479682 0.051756255 0.048454065 0.0039234967
-0.00510496 0.021574054 -0.043269962 0.048363402 0.050514605 0.0017478311 -0.048044514 -0.006255789
0.040367626 -0.037404764 0.0151086 -0.02529604 0.04186695 0.029144598 -0.003863507 0.043680582
0.08379067 0.0033094971 -0.0036574297 0.00671638 -0.030776806 0.01953071 0.055949964 0.025223304
0.032984532 0.019478276 -0.020168371 -0.018294398 0.023553213 0.0097546065 0.039395396 0.0669349
0.041112073 0.059496462 0.017311845 0.0033407072 0.0016610883 -0.040585004 0.036123686 0.040755928
0.027753713 0.044539377 -0.029651085 0.035618912 -0.03380718 0.015054196 0.0005955078 0.040887963
0.0070674513 0.09834062 0.022808162 0.06633037 0.05836699 0.02447855 -0.031579994 -0.029840495
0.014302396 -0.046770718 0.00044652255 0.024877809 -0.059956975 -0.01226806 -0.035799436 0.032434627
0.0026880878 0.032123867 0.008947771 -0.0147612365 -0.025975933 0.0040021166 0.053431008 0.0368465
0.03827519 0.022431701 0.029903578 0.069156304 0.068184316 -0.0118893245 0.048121393 0.070888445
-0.048583947 -0.08276456 0.00998761 0.00507895 0.014646542 -0.014878213 0.032898784 0.014039423
0.012564334 -0.021487284 0.012810599 -0.0016514754 -0.022186264 0.038862523 0.01214563 -0.008355351
0.026309732 -0.04098056 0.02019855 0.0028123893 0.060751595 0.015977902 0.091209605 0.041754697
-0.012796779 0.023264302 -0.0014719369 0.013206888 -0.013624633 0.033436928 0.0036120957 0.07364837

encoder.9.bias f4 [64]
00000000: e11b 4abd e8ca 443d 3513 0abc 2439 373d
00000010: bc98 edbc c392 cd3c 1b3c 893a 1fb5 0ebd
00000020: 2152 1e3d 6d0e a2ba 3f40 41bd 3208 efbc
00000030: 8ed7 d93c 0839 543d 0549 e4bb fbc1 03bd
00000040: 5bdc 7cbc 0118 353d 801c 963c dd3e 8ebc
00000050: d3c1 d93b 919e 4c3d 42eb b5ba 5dd7 bebc
00000060: 468d 45bd 0205 423d f2de e6bc 0434 083d
00000070: fb1b 693d 7d56 553d ecc7 af3b 8d16 f93c
00000080: 3800 6ebb f5b0 ef3b 0018 243d 23a7 e93c
00000090: c012 4c3d ec2e f1ba bf8a 12bd 7111 433c
000000a0: 579c 21bd 98ef 3cbd 3031 3cbb d689 543d
000000b0: 3c1c 6f3b d37a b2bc 628b d53c a026 61bd
000000c0: b53f 02bd 178d 6d3d f0e0 c43c 3590 43bd
000000d0: cc1b 2f3a 294c ae3c 551b 0b3d cd84 cf3c
000000e0: 2923 1fbd 8133 d93c c512 df3c fb22 32bd
000000f0: 84a2 84bc 9457 493d 3d40 a43c e41c e73c
-0.049342994 0.04804507 -0.008427431 0.044732228 -0.029003493 0.025094396 0.0010470183 -0.0348407
0.038652543 -0.0012363918 -0.04718041 -0.029178713 0.026592042 0.0518122 -0.0069667124 -0.032167416
-0.015433396 0.044212345 0.018324137 -0.01736396 0.00664542 0.04995591 -0.0013879316 -0.023296053
-0.048230432 0.047368057 -0.02818248 0.03325273 0.05691145 0.052084435 0.0053644087 0.03040626
-0.0036316048 0.007314796 0.04006195 0.02852208 0.04982257 -0.0018400825 -0.03577685 0.011906014
-0.039455738 -0.046126932 -0.0028715841 0.051889263 0.0036485335 -0.021787083 0.02606744 -0.054968476
-0.031799037 0.057995882 0.02403304 -0.04774495 0.0006679862 0.02127655 0.033961613 0.025331879
-0.03885189 0.026513817 0.02723063 -0.04349039 -0.016190775 0.049155787 0.020050162 0.028212018

encoder.10.weight f4 [64]
00000000: 006c 813f 590a 803f ef2a 7f3f 73eb 7f3f
00000010: 8a33 7b3f 518b 803f b5b9 793f dd8d 823f
00000020: 2c9d 7d3f 02cc 823f f017 803f e7ab 7f3f
00000030: 1c9b 803f e0f9 7d3f e80c 803f 7ece 7d3f
00000040: 28f1 7e3f 771a 823f 8a3b 7e3f e8c2 813f
00000050: 79e1 7e3f febb 7e3f 29e8 7e3f d012 7e3f
00000060: 6942 7d3f fc03 7f3f 200d 7c3f b1e2 7c3f
00000070: 8848 833f dd57 823f 3cd7 783f 8d6a 803f
00000080: 402d 813f 2326 813f c9a4 7e3f e2c6 7a3f
00000090: 909e 7f3f 0f21 823f 2652 803f ee1f 803f
000000a0: 926d 813f c8eb 803f 4697 7c3f c07f 813f
000000b0: 7f4a 823f 21ca 793f 5d48 813f 4ed3 7d3f
000000c0: 551a 7f3f 7c19 7c3f dbd0 803f 9eb2 7c3f
000000d0: fc2d 7f3f 0362 7d3f ecc8 7e3f 9542 7e3f
000000e0: 419d 7f3f 3d10 803f 7174 803f 2437 7f3f
000000f0: 8cf9 7d3f 06c7 803f 1a70 813f 762a 7d3f
1.0111084 1.0003158 0.99674886 0.9996864 0.9812552 1.0042516 0.9754899 1.0199543
0.9906795 1.0218508 1.0007305 0.9987168 1.0047336 0.99209404 1.0003939 0.9914321
0.99586725 1.0164326 0.993096 1.0137606 0.99562794 0.99505603 0.99573 0.99247456
0.9892946 0.99615455 0.9845753 0.98783404 1.025651 1.0183064 0.9720342 1.0032517
1.0091934 1.0089763 0.9947019 0.9795972 0.9985132 1.0166339 1.002507 1.0009744
1.0111563 1.0071955 0.98668325 1.0117111 1.0178984 0.9757405 1.0100209 0.9915055
0.99649554 0.98476386 1.0063738 0.9871005 0.9967954 0.9897768 0.9952533 0.99320346
0.99849325 1.0004956 1.0035535 0.9969351 0.99208903 1.0060737 1.0112336 0.98892915

encoder.10.bias f4 [64]
00000000: 12b6 a2bd e2f7 ec3b 4b29 083d 28a7 bb3c
00000010: d0de c0bb 8e78 033d 742e d7bc 4ab3 1f3d
00000020: 53ca dc3c 0475 2b3d 96e5 5cbc 2bbe f73c
00000030: 061f 953c eff2 8a3c f2a1 6bbd e4b3 07bb
00000040: 2434 f83b 8cd5 313d eedb 9b3b 05fa 703d
00000050: 2d33 d23c 3147 053d 35a8 c6bb 5901 63bd
00000060: 4316 813c 7c3a 5abd 05a9 1f3b 7198 333c
00000070: c143 8bbd 70d1 d43d e3a4 b4bc e180 343d
00000080: 4aef d63c 4ceb be3c eb92 48bc f1ac 743c
00000090: 56de aa3c 910f 7ebc 01ef a23c 8634 8e3c
000000a0: 2b5d b6bd bf90 ea3c 9d42 683c 2ff2 46be
000000b0: e869 4c3c 97f0 bcbc c33d 17bd d7ab dabd
000000c0: ea2a 693c 20b0 13bd 1472 df3c 5b9d 013d
000000d0: 22a1 1f3d c1d5 0fbb a3bc c23c 0f62 1c3d
000000e0: d008 db3c 6923 79bc 5e85 703d 261c 3e3c
000000f0: 2475 9dbb aee5 e83c 4886 9c3c 43b2 d23c
-0.079448834 0.0072316984 0.033242505 0.022906855 -0.0058859363 0.03209739 -0.026267268 0.038989343
0.026951944 0.04185964 -0.013482472 0.030242046 0.01820327 0.016961543 -0.05752749 -0.0020706588
0.007574575 0.043416545 0.0047564423 0.058832187 0.025659168 0.032538597 -0.0060625323 -0.055421207
0.015757686 -0.05327843 0.0024362218 0.010961638 -0.068000324 0.103915095 -0.02205128 0.04406822
0.026237149 0.023305558 -0.012242059 0.014933811 0.020857971 -0.015506641 0.019889357 0.01735903
-0.08904489 0.028633473 0.014176038 -0.19428323 0.012476422 -0.02306394 -0.036924135 -0.10677307
0.014231423 -0.036056638 0.027276076 0.031644206 0.038972028 -0.0021947476 0.02377159 0.038179453
0.0267376 -0.015206196 0.05872094 0.011603391 -0.004805224 0.028429832 0.019106999 0.025719767

encoder.10.running_mean f4 [64]
00000000: 360b 313f 6b29 7fbe c3c7 80be 36c0 053d
00000010: de20 a83d ac05 443d aa85 dfbd c6dd b0bd
00000020: 7b96 23bd bddc edbd ba10 0f3e edc4 fbbe
00000030: 8ed6 0fbe fa3f 13be edf9 a73e 8f1b 793e
00000040: 721e 843d 24d3 a43c f78a 82bb 6a45 cbbe
00000050: 5642 53bd 2af9 0ebf 06cf ac3e eac1 083f
00000060: dab5 2ebf c6e4 343e 876e 08be 35a0 12be
00000070: e393 083f 7894 2ebf 5fc7 293f 9f22 2e3c
00000080: eea2 26be b4e3 cebd 6e45 603e bdac edbe
00000090: 238d acbd 88ff b63d c1b2 1fbe 54f6 dabe
000000a0: d9aa ad3e f2dc 80be ae09 9a3e ac5a 63bd
000000b0: 8fa3 943d 190a bf3e 38fe b73e afca 0b3f
000000c0: 2a47 cfbe 4a8e 26bd 80b3 bcbe af25 94be
000000d0: c39b d1be 3c69 8ebe c7d3 d6bd 50a9 1dbe
000000e0: 6c62 713d 636f fc3c 724b 543e 3459 cfbe
000000f0: 7c60 c03e 47b9 68be 364d c43d b5a6 96be
0.6915773 -0.24918143 -0.25152406 0.03265401 0.08209394 0.04785697 -0.10914166 -0.0863605
-0.03993843 -0.11614368 0.13971224 -0.4917368 -0.1404669 -0.14379874 0.32807866 0.24326919
0.064511195 0.020120211 -0.003983851 -0.39701396 -0.051576935 -0.55848944 0.33751696 0.5342089
-0.68246233 0.17665395 -0.13323413 -0.14318927 0.5335066 -0.68195295 0.6631984 0.0106283715
-0.1627309 -0.10102025 0.21901485 -0.4642085 -0.08425357 0.089354575 -0.15595533 -0.42766058
0.3391941 -0.25168568 0.3008551 -0.055506393 0.07257759 0.3731239 0.3593614 0.54606146
-0.4048398 -0.04066304 -0.36855698 -0.28935 -0.4093915 -0.27814662 -0.10489612 -0.15396619
0.058931753 0.030814832 0.20731905 -0.40497744 0.37573612 -0.22726928 0.09585039 -0.29424062

encoder.10.running_var f4 [64]
00000000: 6b71 c33e 1418 583e aa62 363e 59a5 8b3e
00000010: 1784 b33e a9c3 383e 0f51 193e 9420 ef3e
00000020: bea2 843e d9c7 423e 60f4 3a3f 5f99 133e
00000030: 743a d33e 4b88 7e3e 4f6b 373e 54a3 c83e
00000040: bc39 473f 9b7b 233e 5dbb c53e 1d28 d53e
00000050: 6386 7a3e 040b 5d3e 83b6 073f 9655 113f
00000060: 4299 6a3e a0ef 053f dbc3 1a3e 2f66 b23e
00000070: 842f 1d3f 323f d93e 1894 043e cef6 653e
00000080: abb3 d23e cd06 7f3e e537 ab3e 63b4 9c3e
00000090: 21f8 ef3e c54f 273e cca3 713e 2ed5 283f
000000a0: e56f 6a3e 1c5c 7c3e 80d3 dc3d 2c30 813e
000000b0: 02e6 953e 9b4e 923e 2590 413e c3f2 bf3e
000000c0: bebe 693e 0377 023e 3da1 8f3e bcdf e43e
000000d0: 1cee 123f 1e89 a53e 861c 9a3e 0fdb 3d3e
000000e0: effb a83e be11 143e b4ca b43d 2bf9 f73e
000000f0: 4f18 9a3e 6fbd d63e 1e28 943e a275 153e
0.3817247 0.21102935 0.17811075 0.27274588 0.35061714 0.18043388 0.14972328 0.46704543
0.25905412 0.19021548 0.73029137 0.14413975 0.41255534 0.24856679 0.17912029 0.3918711
0.7782247 0.1596512 0.3861951 0.41632167 0.24465327 0.21586233 0.53012866 0.5677122
0.22910026 0.52318764 0.15113775 0.34843585 0.6140063 0.42431027 0.12947118 0.2245743
0.411527 0.24904938 0.33441082 0.30606374 0.46868995 0.16339023 0.2359764 0.65950286
0.22894247 0.24644512 0.10782528 0.25232065 0.29277045 0.28575596 0.18902643 0.374899
0.22826669 0.12740712 0.28052703 0.44701946 0.57394576 0.32331175 0.30099887 0.18540595
0.3300471 0.14459893 0.08827725 0.48432288 0.3009667 0.419414 0.28936857 0.14595655

encoder.12.weight f4 [32, 64, 3, 3]
00000000: 4831 923c 5eed 863c da17 24bc 8786 27bc
00000010: 94d3 1dbc 87e3 d63a db59 9a3c 73f0 78bc
00000020: a480 263a 22d8 213c edfd 58bb 3715 5abc
00000030: 11f5 d4bc b5f3 22bd 7a50 973c b7dd 9c3c
00000040: c2fb afbc 57bb 03bd f48d 263c 2401 b03c
00000050: ec53 cebb df7f 893b 62aa 0ebd 6b22 d2b8
00000060: a5bc 5dbb d3f5 003b cc7a 3c3d f8a7 803b
00000070: ea86 e03c 2c98 e1bb b846 83bc d60c 94bc
00000080: 5086 04bd 8fd2 bb3c 0229 8938 474a 06bd
00000090: 81af 44bd 128f d5bc 7a9a c13c b5b1 2dbd
000000a0: 9f2f 783c df06 3bbc 997f 0cbd c1e4 44bc
000000b0: 9b9f e23c 45e5 df3a f540 82bc 7fab 313d
000000c0: 8937 a93b e312 553c 8a1f fbbb efd7 a4bc
000000d0: 7241 e53c be99 adbc 2c7d c23c b658 773c
000000e0: fbce da3b 80e0 243c 3136 463b 77e8 32ba
000000f0: 1d13 7e3c 0913 95bc c494 373b e15c a3bc
00000100: a590 a83c 0eb6 403c e341 0c3d 9748 233d
00000110: df99 28bd 508d ac3c 44f3 24bc 8026 ee3c
00000120: 5cc6 7c3c 98e2 15bd c57c 333c 1d86 ba3a
00000130: 1632 96bc 68d1 b13c c355 8b3c 4a78 0b3d
00000140: b6d1 273d ec1c 58bd f42e c63c 452b c9bc
00000150: 3577 a83d c876 9d3d 4d82 093b 2e6d afbc
00000160: 44dd 1cbd 724a d73c 7eaa 11bb 308c c0bc
00000170: e08b 56bd d1ec 21bd ccb1 523c 261d f83c
00000180: 5e57 31bc d6ab 12bd 7273 de3c 7523 e83a
00000190: 4020 04bd 8cfd 81bc df9c 423d 5d10 5fbd
000001a0: 40ba f03c 497b 31bc 869f 09bc 786b 2f3c
000001b0: 2a02 043c 1723 133d d6d6 013d b86f acbc
000001c0: 2d06 8abc 5528 8fbc 7def 25bc 0434 4abb
000001d0: 65aa 053d 3775 ee3b c626 ddbc 1ead 893c
000001e0: 1505 a5bc aa92 3abd 79ea b1bb d9ff 18bc
000001f0: 2ccd 3bbd 9d68 90bc d6b6 ba3c 7937 3cbc
00000200: af8c a63b 6811 c63c 0d92 7f3b 737c a3bc
00000210: 8e82 a8bc 9c5e a7bb 9de1 013d 7685 113c
00000220: 3e22 723c a13e 4b3c 586e d8bc 941d 46bc
00000230: 28e9 19bc 8a8e c13c f076 fbbc 70f4 a1bb
00000240: 6a24 94bc 5131 c6bc 7a31 123c 5077 0abc
00000250: 4d95 473c 153e b73b 571f bb3b 2183 0cbd
00000260: 0d70 75bc 8387 c93b 3b9d d038 fcf8 d23c
00000270: 06e1 25bd eddb 12bd 608d d03c e4f3 e43c
00000280: 433f e23c e31c d13c cc8b 7abb 0a09 253d
00000290: 04b3 ce3c 7860 a63c cad5 023d 5609 48bc
000002a0: 75cf 4e3c 79fd 11bd 0e55 b0bc 1767 85bc
000002b0: 7bae 90bd 7da5 183c 0570 e2bb 54f0 77bd
000002c0: 7372 c0bc 7c3c d43c 5ced 38bc d3c5 093d
000002d0: a24c 53bb 7e8d eb3c 0cab b7ba e52b 733c
000002e0: 482e 133d f371 ee3c 3984 b03c 3779 7cbc
000002f0: 0934 c5bb 2f91 903c 5b79 b6bc c4df 4bbd
00000300: 9c10 31bc 3bb4 023b a81d 923c 8816 203d
00000310: 34bb ddbb 4d95 d83c f494 713c ee1b 153c
00000320: af44 61bc dc16 dabb 221b 9dbc b9a8 713c
00000330: 0ca2 c83c cbdb 88bc e859 1e3c 6b7a a13c
00000340: 8c88 ae3c eccc 113b 56b9 17bd da8d 1cbd
00000350: 0054 eabb c809 83bc 29a2 a2bc 4f02 903b
00000360: d023 8a3c f4ea dbbc 1a9f 63bb 4dc8 9d3c
00000370: 04b1 aebc 89c7 f2bc b992 143c e7e5 6abd
00000380: 5922 3d3b 572b fe3b 0e0c 35bd 50a7 05bd
00000390: 98a0 0cbd e9a5 07bd 8fc0 843c f20e a6bc
000003a0: 411b e13b 44bd 1c3c 40f5 173c 8ede 63bd
000003b0: 07c8 673b bc66 94bc 5712 dbbc 825c 19bd
000003c0: 2318 04bd 6f6e 363c 9b83 6d3c 74e7 adbc
000003d0: 8733 08bd c700 b53c 1957 6f3c 4390 91bb
000003e0: cc61 06bc ebca a5bc 54c3 ddbc a3af b53b
000003f0: 375a e4bc d3f8 793c 9943 d3bb 80d1 e33c
0.017845765 0.016470607 -0.010015452 -0.010224945 -0.009632964 0.0016394713 0.018841675 -0.015194046
0.00063515664 0.00987819 -0.0033110336 -0.013310722 -0.025995763 -0.0397832 0.018470991 0.01914869
-0.021482352 -0.032161083 0.01016568 0.021484919 -0.0062966254 0.0041961516 -0.03483046 -0.00010019991
-0.0033834365 0.0019677773 0.046015546 0.0039262734 0.027408082 -0.0068845954 -0.016024932 -0.018072527
-0.032354653 0.02292755 6.5403074e-05 -0.03278568 -0.048018936 -0.026069198 0.02363323 -0.042405803
0.0151480725 -0.011415212 -0.034301374 -0.01201743 0.027663996 0.0017081877 -0.015900115 0.043376442
0.005164091 0.013004991 -0.007663672 -0.020122496 0.027985308 -0.021191474 0.023741327 0.015096834
0.006677506 0.010063291 0.0030244703 -0.0006824801 0.015507487 -0.018197553 0.0028012255 -0.019941749
0.020576784 0.011762155 0.034242522 0.03986415 -0.041162368 0.021063477 -0.010067765 0.029071093
0.015428152 -0.03659305 0.01095504 0.0014230643 -0.01833443 0.021706298 0.017008668 0.034050263
0.04097148 -0.052761957 0.02419231 -0.024556765 0.08225862 0.07688671 0.0020982206 -0.021414366
-0.038296953 0.026280615 -0.0022226865 -0.023504347 -0.05237949 -0.039532486 0.012859773 0.030287337
-0.010824053 -0.035808407 0.027154658 0.0017710762 -0.03225732 -0.01586797 0.047512885 -0.054458965
0.029385686 -0.010832616 -0.00839985 0.010706775 0.008057157 0.035922136 0.031699024 -0.021049365
-0.016848648 -0.017475286 -0.010127899 -0.0030853758 0.032633204 0.0072771567 -0.026996028 0.016806182
-0.020144025 -0.045550026 -0.0054295626 -0.009338343 -0.045849964 -0.017628008 0.022792261 -0.011487835
0.0050826888 0.024178222 0.0038996965 -0.019956803 -0.020570066 -0.005107714 0.031709302 0.008881917
0.014778672 0.012405069 -0.026419804 -0.012092013 -0.009393968 0.023627538 -0.030696362 -0.0049424693
-0.01808377 -0.024193438 0.008922929 -0.008451298 0.012181592 0.0055921176 0.005710523 -0.03430474
-0.014980328 0.0061501875 9.947499e-05 0.02575349 -0.040497802 -0.03585427 0.025458038 0.027948327
0.027618056 0.02552647 -0.0038230298 0.040291823 0.025231846 0.020309672 0.031942166 -0.012209257
0.012622704 -0.03564212 -0.021524932 -0.016284509 -0.070645295 0.009316799 -0.0069103264 -0.06053193
-0.023492074 0.025907747 -0.01128706 0.033635926 -0.0032241722 0.028753992 -0.0014012768 0.014842008
0.03593281 0.02910707 0.021547424 -0.015409759 -0.006018166 0.017647354 -0.022274664 -0.049773946
-0.010807183 0.0019943852 0.017836407 0.039083987 -0.006766701 0.02643838 0.014744986 0.009100897
-0.013749286 -0.006655557 -0.019177977 0.014749699 0.024491332 -0.016706368 0.00966499 0.019711694
0.021305345 0.0022247387 -0.037041984 -0.038221218 -0.007151127 -0.015995875 -0.019852715 0.0043948065
0.01686278 -0.026845433 -0.0034732283 0.01926055 -0.021324642 -0.029636161 0.0090681845 -0.05734816
0.0028859584 0.0077566314 -0.04420095 -0.032630265 -0.03433284 -0.03311721 0.0162051 -0.020270798
0.006869704 0.009566609 0.009274781 -0.055632167 0.0035367028 -0.018115394 -0.026742144 -0.037441738
-0.03224958 0.011134728 0.014496709 -0.02122853 -0.033252265 0.022095097 0.014608168 -0.004442246
-0.0082020275 -0.02023836 -0.027070679 0.005544619 -0.027875049 0.015257078 -0.0064472673 0.027809858

encoder.12.bias f4 [32]
00000000: 3600 6a3c 7bd2 e7bc 170d 013d 3622 543c
00000010: f617 fe3c 5607 983c 6087 853c 63c3 143d
00000020: be7c 9cbc 1bfb fcbc 7b1b 5ebc c6ab 6dbc
00000030: efd9 1e3d 7746 8e3b a6dd b83c e8ce fdbc
00000040: 8ef8 dfbc be12 883c 665b 393c 0048 adbc
00000050: 7066 203d 16bd d9bb ae7b 20bd e3cf 963c
00000060: 8e7a b7bc 8ea5 d5bc 2e28 b3bc 007b 183c
00000070: 92c6 0d3d a0fd 493c 46e6 903c 8333 b2bc
0.014282277 -0.028298607 0.031506624 0.01294761 0.031017285 0.018558186 0.016299903 0.036319148
-0.01910245 -0.030881455 -0.013556357 -0.014506286 0.038782056 0.004341896 0.022566628 -0.03098245
-0.0273402 0.0166105 0.011313295 -0.021152496 0.039160192 -0.0066448553 -0.03918045 0.018409675
-0.022397306 -0.02607992 -0.021869745 0.009306669 0.0346132 0.012328535 0.017687928 -0.021753078

encoder.13.weight f4 [32]
00000000: fbd8 7d3f 4a8b 7f3f 9913 7c3f 77b8 7f3f
00000010: 9024 7c3f a9b4 803f d887 783f 8225 813f
00000020: f4a9 803f eb88 7a3f 46eb 7f3f 4f34 773f
00000030: 97f0 7d3f 0037 803f 7d88 7c3f 4325 7e3f
00000040: d60c 7e3f 8030 823f bb54 7d3f 9251 823f
00000050: eda5 803f 00ed 7a3f 9943 7e3f 7916 7f3f
00000060: 87b3 793f c20d 823f c4ab 783f af63 7b3f
00000070: 346e 823f 3cb1 7a3f 8ae8 883f 4976 7e3f
0.9915921 0.99821913 0.98467404 0.99890846 0.9849329 1.0055133 0.9708228 1.0089571
1.0051866 0.9786517 0.99968374 0.9656419 0.99195236 1.0016785 0.98645765 0.99275607
0.99238336 1.0171051 0.98957413 1.0181143 1.0050637 0.98017883 0.99321896 0.99643666
0.9753956 1.0160449 0.97137094 0.9819898 1.0189881 0.9792669 1.0695965 0.9939924

encoder.13.bias f4 [32]
00000000: 510b 123d 35ea eeb9 da44 843d 20b3 4a3d
00000010: ee49 d8bb 119b 82bd 6c1c c33c ac8d 57bd
00000020: 984d 35be bb55 313d 099a 443d 7f98 b6be
00000030: 91f9 6f3c 245d 8c3d 5f31 4e3c fb09 293c
00000040: daf8 da3b 7b9a af3d e224 9c3d a748 853d
00000050: 52e2 363d 107c 7ebd 12aa 7b3c 81af b53d
00000060: 9b89 f23c 662a 823d add1 d33d cecf 97bd
00000070: 83f5 e13d 84d1 033d 134e c93d db76 9e3c
0.035655323 -0.00045569395 0.06458445 0.049487233 -0.00660061 -0.06377233 0.023817264 -0.052625343
-0.17705381 0.04329465 0.047998462 -0.3566322 0.014646904 0.06853703 0.012585013 0.010317321
0.0066824974 0.08574387 0.07624222 0.06507998 0.04464943 -0.062130034 0.015360372 0.08871365
0.029606631 0.06355743 0.10342727 -0.074126825 0.11033156 0.03218223 0.098293446 0.019343784

encoder.13.running_mean f4 [32]
00000000: 6318 afbe 22a4 88be 120b ddbd dba9 0abf
00000010: e924 303e 1fed 323e 28c2 993d a87b e03d
00000020: 7b89 83bd fe12 b4bd 986d 813c 9731 943d
00000030: 1f7c 12be 6592 743e 0352 07bf b49d ac3d
00000040: ed00 debe 6fd7 50be 0313 04bf 42bf 323d
00000050: e65d 2dbe ec1c ddbd 00cf f8be 5175 2b3e
00000060: 6837 0abf 2343 edbe 667a 0abd f88c 6d3e
00000070: 40d3 e43e 03a4 f7be 0bdf e4be 48bc 85bd
-0.34198293 -0.26687723 -0.10793127 -0.5416543 0.1720158 0.17473267 0.075077355 0.109610856
-0.06422707 -0.08792685 0.015799329 0.07236021 -0.14305161 0.2388397 -0.52859515 0.08428517
-0.4336008 -0.20394681 -0.5159151 0.04363943 -0.1693035 -0.10796532 -0.48595428 0.16743971
-0.53990793 -0.46340284 -0.033808134 0.23198307 0.4469242 -0.4836732 -0.44701418 -0.065300524

encoder.13.running_var f4 [32]
00000000: fdb0 8f3e 83e4 523f b25d 0c3f 554d 283f
00000010: 6ff5 c93e ce29 0b3f f339 813f c3f4 d63e
00000020: f352 e03e 10d7 e03e 76b8 ab3e 4587 373e
00000030: 68a0 543e 11d3 ff3e 96d3 a73f 15b6 c63f
00000040: 5591 543e 8480 1f3f f5c9 043f 13fa c63f
00000050: dc37 6f3f 2d43 293f f9c7 443f 5c54 f63e
00000060: 86f2 713e 9575 203f 0a47 4e3e bf17 683f
00000070: 457c 803f 9967 5d3f 8bac 763f 9584 7b3e
0.2806472 0.8237993 0.5483047 0.65743 0.39445063 0.54360664 1.009581 0.41983613
0.43813285 0.4391408 0.3353917 0.17922695 0.20764315 0.49965718 1.3111446 1.5524317
0.20758565 0.62305474 0.5187066 1.5545067 0.9344461 0.6611813 0.76867634 0.48111236
0.23627672 0.62679416 0.20144287 0.90661234 1.0037924 0.864862 0.9635703 0.24562295
