assignment_3/output/assigment_3_model-2.pt (torch, 240077 bytes, 62 tensors)

encoder.0.weight f4 [8, 3, 3, 3]
0	0x3db70062	0.0893562
1	0x3e4c89fd	0.19974513
2	0xbd85d556	-0.06534831
3	0xbcaba72b	-0.020953735
4	0x3d026061	0.031830195
5	0xbc2fb957	-0.010725341
6	0x3e336fd4	0.17523128
7	0x3e568a27	0.20951138
8	0xbdf91ce2	-0.12163712
9	0x3d879683	0.06620505
10	0x3d6007f0	0.05469507
11	0xbe1634ce	-0.14668581
12	0xbd9c3f6d	-0.07629285
13	0x3dac29fc	0.084064454
14	0x3cbc2aad	0.022969568
15	0x3e6bb7a3	0.2301927
16	0x3e1e1ddf	0.15441082
17	0xbcab4329	-0.020906048
18	0x3cffd729	0.031230526
19	0xbdb183c9	-0.08667714
20	0x3d0db2e1	0.03459442
21	0x3d8866ca	0.066602305
22	0x3e2361a9	0.15955223
23	0xbc8f3ee4	-0.017486043
24	0x3dddcf4c	0.10830554
25	0x3dc3cc87	0.09560495
26	0xbda5717d	-0.08078287
27	0xbdd45e86	-0.103695914
28	0x3e0e15c5	0.13875492
29	0x3df1380b	0.117782675
30	0xbd99c4b7	-0.075082235
31	0xbb83c565	-0.004021334
32	0xbde6718d	-0.11252127
33	0xbd457941	-0.04821134
34	0xbdf26ef9	-0.118375726
35	0x3db744ed	0.089486934
36	0x3e3238f7	0.17404543
37	0x3e580231	0.21094586
38	0x3e6c07ba	0.23049822
39	0xbdfe7325	-0.12424306
40	0xbe28124d	-0.16413231
41	0xbde1f873	-0.11033716
42	0x3dc37631	0.095440276
43	0xbe06a915	-0.13150437
44	0x3df6b6a6	0.12046556
45	0x3e174578	0.14772594
46	0x3da5da55	0.08098284
47	0x3e57531b	0.21027796
48	0xbc528e39	-0.012851291
49	0x3d01a420	0.031650662
50	0x3e742fe3	0.23846392
51	0xbe1ec75d	-0.15505739
52	0x3e00fbb9	0.12596025
53	0x3ba94730	0.005165957
54	0xbe179f7b	-0.1480693
55	0xbd94d143	-0.07266476
56	0xbbf7a629	-0.0075576496
57	0x3d8b18f2	0.06791867
58	0x3e17f004	0.14837652
59	0x3d09dc63	0.033657443
60	0xbc86c9cd	-0.016453648
61	0x3d85be55	0.065304436
62	0x3e032ee7	0.1281086
63	0xbc9a29ef	-0.018818824
64	0xbdf20f95	-0.11819378
65	0xbdccbdbc	-0.099971265
66	0xbe7a78d8	-0.2446016
67	0xbdbad8eb	-0.09123405
68	0x3e119e77	0.14220606
69	0xbdf746bd	-0.12074039
70	0xbdcaa7c8	-0.09895283
71	0x3d18e33b	0.03732608
72	0xbe0749ff	-0.13211821
73	0xbe6eeaa5	-0.23331697
74	0x3dc53eae	0.09631096
75	0xba340391	-0.00068669865
76	0xbe81f6d2	-0.2538362
77	0xbdf5998e	-0.11992179
78	0xbe580b1d	-0.2109799
79	0xbda7345a	-0.08164282
80	0xbd223e12	-0.039609976
81	0x3bfc406a	0.0076981084
82	0xbd632f3b	-0.055464964
83	0x3d434746	0.047675394
84	0xbe2424ea	-0.16029707
85	0xbe8dc406	-0.27688617
86	0xbdca8802	-0.09889223
87	0x3aebfe1c	0.0018004808
88	0xbe87bb41	-0.2651005
89	0x3db36ff1	0.087615855
90	0xbc78afa7	-0.0151785975
91	0xbe4d1158	-0.20026147
92	0xbbcc21c8	-0.006229613
93	0xbc684b2b	-0.014178078
94	0xbd92e858	-0.07173222
95	0x3ce873a6	0.028375458
96	0xbd853fc2	-0.065063015
97	0xbe181982	-0.1485348
98	0x3db47f54	0.088133484
99	0xbe129660	-0.14315176
100	0xbd92cc26	-0.071678445
101	0x3cd57624	0.02605731
102	0x3d987550	0.074442506
103	0xbe33263e	-0.17495057
104	0x3c3acb85	0.011401062
105	0xbc42c2c8	-0.01188726
106	0xbd2cffc5	-0.04223611
107	0x3bbafe73	0.0057066022
108	0x3c4fb3a4	0.012677107
109	0x3e178292	0.14795902
110	0x3de889d2	0.11354412
111	0x3e723604	0.23653418
112	0x3e3da49c	0.18519825
113	0xbd51feda	-0.051268436
114	0x3def8c73	0.116967104
115	0x3e64e4fc	0.22352976
116	0x3dec38a8	0.11534244
117	0xbb8e0371	-0.0043339063
118	0x3e28f1f4	0.16498548
119	0x3c6e48e9	0.01454375
120	0x3e03401f	0.12817429
121	0x3de566a6	0.11201219
122	0xbd6d7a3f	-0.05797791
123	0x3cbfa132	0.023392294
124	0xbd0954ed	-0.033528257
125	0x3cdc1574	0.026865698
126	0x3ba91e50	0.0051610842
127	0x3e07502e	0.1321418
128	0xbe0d6aea	-0.13810316
129	0xbded8ca5	-0.115990914
130	0x3ce3979c	0.027782254
131	0xbc81a70f	-0.01582673
132	0xbd3c3f53	-0.04595883
133	0x3dbacefb	0.0912151
134	0xbd814741	-0.06312419
135	0x3d7f187c	0.06227921
136	0xbe0a517d	-0.13507648
137	0xbc010409	-0.007874497
138	0x3cb6b14a	0.022301335
139	0xbdcbba6b	-0.09947666
140	0xbdb39c31	-0.087700255
141	0x3d69c6ff	0.057074543
142	0xbd1dd8c1	-0.03853679
143	0x3da0f3f0	0.078590274
144	0x3a9d6a1a	0.001200977
145	0xbdd21f03	-0.10259821
146	0x3cd78a2f	0.026311008
147	0x3b53eab0	0.003233593
148	0xbe3c078f	-0.18362258
149	0xbe4973a3	-0.19673018
150	0x3d000ba4	0.0312611
151	0xbbbdd06c	-0.005792668
152	0x3d84c079	0.06482024
153	0x3d8c1122	0.06839205
154	0xbe1a9daa	-0.15099207
155	0x3d6d862f	0.057989296
156	0xbdf1cf9e	-0.11807178
157	0xbeaeb559	-0.34122732
158	0xbdc8bf13	-0.098020695
159	0x3dc1ee0d	0.09469233
160	0x3cf3c568	0.029757217
161	0xbc772f1e	-0.015086917
162	0xbd9c3b3b	-0.07628485
163	0xbd2d8471	-0.042362634
164	0xbd2693fc	-0.040668473
165	0xbdbb0504	-0.09131816
166	0xbe32a7c8	-0.17446816
167	0xbe691a34	-0.22763902
168	0xbd995cca	-0.07488401
169	0xbd2a5350	-0.04158336
170	0xbe49e077	-0.19714533
171	0x3d778e41	0.0604384
172	0xbc085d49	-0.008323022
173	0xbdc3eb50	-0.09566367
174	0xbcb8a35c	-0.022538833
175	0xbe119b8c	-0.14219493
176	0xbdc59955	-0.096483864
177	0xbd87046e	-0.06592642
178	0xbdc0aa0a	-0.094074324
179	0xbe08d18f	-0.1336119
180	0x3d8ef5e9	0.069804974
181	0x3e015589	0.12630285
182	0xbb2cb9c7	-0.002635585
183	0xbda360c6	-0.079774424
184	0x3d005ddf	0.031339522
185	0xbe122229	-0.14270844
186	0x3e1d5e56	0.15368018
187	0xbd28b8b8	-0.041191787
188	0x3da7683e	0.081741795
189	0xbdb21dc8	-0.086970866
190	0xbd6ff7c3	-0.058585893
191	0xbdc87a4b	-0.097889505
192	0x3d8d62e2	0.06903626
193	0x3e7bc06b	0.2458512
194	0x3d32fe4a	0.04369954
195	0xbe23a7d0	-0.15981984
196	0x3e34946c	0.17634743
197	0xbe2524bb	-0.16127293
198	0xbdb3ee29	-0.0878566
199	0x3c701577	0.014653555
200	0xbc09844e	-0.00839336
201	0xbd336c9e	-0.043804757
202	0x3e9ac7cd	0.3023056
203	0xbc964e24	-0.018347807
204	0xbc93c86a	-0.0180399
205	0x3e26daa6	0.16294345
206	0x3ccbc6a2	0.024874989
207	0xbd7fca3e	-0.062448733
208	0x3c2d5fea	0.01058195
209	0x3d3fc86c	0.046821997
210	0x3cda2c94	0.026632585
211	0x3e8bfb4b	0.2734016
212	0x3de1583e	0.11003159
213	0x3d22e31a	0.039767362
214	0x3e7c5fd5	0.24645932
215	0xbb75c0fe	-0.0037499066

encoder.0.bias f4 [8]
0	0x3d3f767e	0.046743862
1	0x3e2ebe36	0.17064747
2	0xbdcddd2b	-0.1005195
3	0x3d84329f	0.06454968
4	0x3c802223	0.015641278
5	0x3c0dabcc	0.008646917
6	0xbdfc76a1	-0.12327314
7	0x3df7ffad	0.12109313

encoder.1.weight f4 [8]
0	0x3f65c746	0.8975719
1	0x3f610379	0.87895924
2	0x3f86fbc0	1.0545578
3	0x3f8d430c	1.1036086
4	0x3f6be44e	0.9214524
5	0x3f88122f	1.0630549
6	0x3f83113a	1.0239632
7	0x3f733457	0.9500174

encoder.1.bias f4 [8]
0	0xbd28036e	-0.041018896
1	0xbce446ae	-0.027865734
2	0xbc51807c	-0.012786981
3	0xbc359381	-0.011082531
4	0x3d0febe2	0.035137065
5	0x3eb63374	0.3558613
6	0x3c7ac2bc	0.015305217
7	0x3e6a504e	0.22882196

encoder.1.running_mean f4 [8]
0	0x3f0fa124	0.56105256
1	0x3f000f26	0.50023115
2	0xbf28fada	-0.6600777
3	0xbf16995f	-0.58827776
4	0x3f268ddd	0.65060216
5	0xbedc2865	-0.4299957
6	0xbf42e934	-0.7613709
7	0x3f0cb52b	0.5496394

encoder.1.running_var f4 [8]
0	0x3d9ffa0f	0.07811367
1	0x3d68c498	0.05682811
2	0x3dd1be25	0.10241345
3	0x3dd81cdf	0.10552382
4	0x3dc33948	0.0953241
5	0x3d73bc82	0.059505947
6	0x3dcc2804	0.0996857
7	0x3d85f5ff	0.06541061

encoder.3.weight f4 [16, 8, 3, 3]
0	0x3d528a57	0.051401462
1	0x3e00894c	0.12552375
2	0x3de75ff4	0.112975985
3	0xbd07224f	-0.032991704
4	0xbc5f14e4	-0.013615821
5	0x3e0c1507	0.13679896
6	0xbd7f2c2c	-0.062297985
7	0xbd8a5473	-0.06754389
8	0xbce954d1	-0.028482826
9	0xbd5098f7	-0.05092713
10	0x3c7997ed	0.015233976
11	0xbdc06862	-0.093949094
12	0xbd3c31a0	-0.045945764
13	0xbdc23383	-0.09482481
14	0xbcb455a0	-0.022013485
15	0xbda34ae3	-0.07973268
16	0x3d554ad2	0.052073307
17	0xbe0acc10	-0.13554406
18	0x3d9f6768	0.07783395
19	0xbd935aad	-0.071950294
20	0x3d0e1ac6	0.034693502
21	0xbc92e7ac	-0.017932735
22	0xbda5952d	-0.08085094
23	0xbd9ddf4e	-0.077086076
24	0xbd17a93f	-0.03702664
25	0xbc356094	-0.011070389
26	0x3dc6d30c	0.09708223
27	0x3cb28cbe	0.021795627
28	0x3d4148aa	0.04718844
29	0xbdd358fc	-0.10319707
30	0x3c898b2d	0.016789997
31	0xbd255a2f	-0.04036921
32	0x3a7e61e3	0.00097039173
33	0x3dfc86d4	0.12330404
34	0xbdb27808	-0.087143004
35	0xbd83d550	-0.064371705
36	0xba89e18d	-0.001051949
37	0x3e3c2b00	0.18375778
38	0x3cab22dc	0.020890646
39	0x3ddca535	0.10773698
40	0x3d992680	0.074780464
41	0x3ddb85fe	0.10718916
42	0x3a934f50	0.0011238847
43	0xbd89c9b3	-0.06727924
44	0xbdaf0439	-0.08545727
45	0x3ca92d50	0.02065149
46	0x3d973aa6	0.07384233
47	0x3c92c02b	0.017913898
48	0xbd5bea0b	-0.053689998
49	0xbdc855f7	-0.097820215
50	0xbdf23f59	-0.11828489
51	0xbdd64cc5	-0.104638614
52	0xbc73bd11	-0.01487662
53	0xbd88e6b3	-0.066846274
54	0xbda43d4d	-0.08019505
55	0xbddd5cf7	-0.10808747
56	0xbd9c889f	-0.07643246
57	0xbdaaa7c5	-0.08332781
58	0x3cb34c09	0.021886842
59	0x3bdc96b8	0.0067318343
60	0x3af4e713	0.0018684588
61	0x3de2d53f	0.1107583
62	0x3d01b8a2	0.03167022
63	0x3d1bcbbb	0.03803609
64	0x3dca3150	0.09872687
65	0xbe02fcfa	-0.12791815
66	0x3c2d18e0	0.010565013
67	0x3bd7c8dc	0.0065852236
68	0xbbab5526	-0.0052286563
69	0x3dc51a23	0.09624126
70	0x3c310091	0.010803358
71	0xbbe9dfb0	-0.0071372613
72	0x3c7142c1	0.014725388
73	0xbd802de6	-0.062587544
74	0x3d5825ac	0.0527703
75	0x3d32f548	0.04369095
76	0xbdb4458a	-0.08802326
77	0x3e343504	0.17598349
78	0x3d0846f1	0.03327078
79	0x3d417fd1	0.047241036
80	0x3e074619	0.13210334
81	0xbd996d87	-0.07491594
82	0x3b9bc775	0.0047540017
83	0xbc790154	-0.015198071
84	0xbc3a606b	-0.011375527
85	0xbc909dd1	-0.017653378
86	0x3d864491	0.06556047
87	0x3cd7f94f	0.026363997
88	0x3e532b66	0.20622024
89	0x3ddc1b6c	0.10747418
90	0x39edd97c	0.000453662
91	0xbae92fc7	-0.0017790728
92	0x3c58757d	0.013211605
93	0x3b936fdc	0.0044994187
94	0x3a073fbc	0.00051593385
95	0xbdbe0ff9	-0.0928039
96	0x3da1c00f	0.078979604
97	0xbd97b02c	-0.07406649
98	0xbd2d38d2	-0.042290516
99	0x3d57d254	0.05269082
100	0xbd28f113	-0.04124553
101	0x3d0c0049	0.03417996
102	0xbdb0403e	-0.08606003
103	0xbe0b9283	-0.13630109
104	0x3d96833d	0.073492505
105	0xbd2faee4	-0.042891398
106	0xbc2dc758	-0.010606609
107	0xbda0e023	-0.07855251
108	0xbd443b53	-0.04790814
109	0x3d2eab60	0.042643905
110	0x3cfa23cc	0.030534647
111	0xbd5fec55	-0.054668743
112	0x3dd25522	0.10270144
113	0xbd80cb42	-0.06288768
114	0x3c909346	0.01764835
115	0xbdf095a9	-0.117472954
116	0xbd983f1f	-0.074339144
117	0x3d65debc	0.05612062
118	0xbd37b469	-0.044849787
119	0xbc80a5f5	-0.015704134
120	0xbd162250	-0.036653817
121	0xbe00d7f1	-0.12582375
122	0x3cad923f	0.0211879
123	0x3d943db4	0.072383314
124	0xbd5124e3	-0.05106057
125	0xbdf07f2f	-0.11743008
126	0xbd56feb3	-0.052488994
127	0xbd8820e9	-0.06646902
128	0x3d283d0e	0.04107385
129	0xbc072bf0	-0.008250222
130	0xbd5c4859	-0.053779934
131	0x3df85e03	0.12127306
132	0xbd5f043b	-0.054447394
133	0xbcfba3d5	-0.03071777
134	0x3db5da76	0.08879559
135	0xbd411877	-0.047142472
136	0x3d091e04	0.03347589
137	0x39d3340e	0.0004028384
138	0xbafb7dc2	-0.0019187259
139	0x3d96a0be	0.07354878
140	0x3e1a6185	0.15076263
141	0x3ce0fdc8	0.027464762
142	0x3c9d7118	0.019218966
143	0xbd1684c0	-0.036747694
144	0x3de5e98d	0.11226187
145	0xbd1674b0	-0.036732376
146	0xbdc25203	-0.09488299
147	0xbdc99387	-0.09842592
148	0xbcb08935	-0.0215498
149	0x3d8d04d7	0.06885689
150	0xbdb49048	-0.08816582
151	0xbd4e015f	-0.050294276
152	0xba8fd14e	-0.0010972412
153	0xbce5c9e2	-0.028050367
154	0x3dd5356b	0.10410579
155	0x3d9641f7	0.073368005
156	0x3dcce688	0.10004908
157	0xbd49f528	-0.049306065
158	0x3da6d58e	0.08146201
159	0x3d9e08f2	0.0771655
160	0xbdb643ba	-0.088996366
161	0xbc7b2027	-0.01532749
162	0x3dbde6ae	0.09272514
163	0x3d8cde0c	0.068782896
164	0x3ddd04ea	0.10791953
165	0xbe0b34bc	-0.13594335
166	0xbd2d8062	-0.042358764
167	0x3db1fec2	0.08691169
168	0x3d964095	0.07336537
169	0x3d90d02b	0.07070955
170	0x3d7cd022	0.06172193
171	0x3d1c8fc3	0.03822304
172	0x3db48ecf	0.08816301
173	0x3d1194f2	0.035542436
174	0xbd053e30	-0.03253001
175	0x3d494a29	0.04914299
176	0xbba7c763	-0.0051202043
177	0x3d82674b	0.06367358
178	0xbdc82391	-0.09772409
179	0x3de4fa7c	0.111805886
180	0x3cacfc05	0.021116266
181	0x3cb45435	0.02201281
182	0xbd5135d3	-0.05107672
183	0xbd2f9ab9	-0.042872164
184	0xbdc0f118	-0.09420985
185	0xbdc19178	-0.09451574
186	0xbd88ba60	-0.06676173
187	0xbd7e238a	-0.06204561
188	0xbc379b35	-0.011206438
189	0x3cf261a9	0.029587584
190	0x3df29356	0.11844508
191	0x3cae0a84	0.021245249
192	0x3d807887	0.06272989
193	0x3b2b16c4	0.0026106099
194	0x3c52ff82	0.012878301
195	0xbcff1cc1	-0.03114164
196	0x3dee7aa2	0.11644484
197	0x3c615104	0.013752226
198	0x3b1b4dee	0.0023697573
199	0xbdeefb1f	-0.11668991
200	0x3a913d90	0.0011080969
201	0xbd7d378b	-0.061820548
202	0x3cb97414	0.022638358
203	0x3da0e3b2	0.078559294
204	0xbdf5947f	-0.11991214
205	0xbdeb8c84	-0.115014106
206	0x3c4d4384	0.012528304
207	0x3cfe8379	0.03106855
208	0xbde3dd13	-0.11126151
209	0xbd4d9adc	-0.050196514
210	0xbe1f8528	-0.15578139
211	0xbdffbd36	-0.12487261
212	0x3d541569	0.05177823
213	0xbd98d391	-0.07462228
214	0xbe092613	-0.1339343
215	0x3d49dc51	0.049282376
216	0xbb6656a6	-0.0035146861
217	0x3da06f33	0.078337096
218	0x3e1b5d19	0.15172233
219	0xbde6b1a6	-0.112643525
220	0xbd8a886a	-0.067643
221	0xbcbf0421	-0.023317399
222	0xbd0191e0	-0.031633258
223	0x3cf68a09	0.030095117
224	0xbdf5e837	-0.12007182
225	0x3d663aa7	0.05620828
226	0xbca126a6	-0.01967175
227	0xbbf2d455	-0.007410566
228	0x3b88b442	0.004171879
229	0x3c09905b	0.008396233
230	0xbcd46251	-0.025925787
231	0xbd6c6e72	-0.057722516
232	0x3e0ecb6f	0.13944791
233	0xba6ad02a	-0.00089574105
234	0xbd6cec9b	-0.057842832
235	0x3c9f5002	0.01944733
236	0xbbabe20b	-0.0052454523
237	0x3d9f9520	0.07792115
238	0xbe0bef99	-0.13665618
239	0xbd83097a	-0.06398292
240	0x3bc91cd9	0.006137472
241	0x3df92d49	0.121668406
242	0xbcbd5567	-0.023112012
243	0x3c0ec9fc	0.008715149
244	0xbcd834a3	-0.026392287
245	0xbe0e7128	-0.13910353
246	0x3dd8f7d5	0.10594145
247	0x3d94587b	0.07243439
248	0xbbaaa294	-0.005207369
249	0x3ddc66d6	0.10761802
250	0xbc8d8ff0	-0.017280549
251	0x3c4af4e3	0.012387487
252	0x3d07f9e9	0.033197317
253	0x3cebc28d	0.028779292
254	0xbc5e055b	-0.0135510815
255	0xbc633807	-0.013868338

encoder.3.bias f4 [16]
0	0x3d744cc0	0.059643507
1	0xbcb49c10	-0.022047073
2	0x3d87d431	0.06632269
3	0x3dd07138	0.10177845
4	0xbcfcc322	-0.030854765
5	0x3c9e11a0	0.019295514
6	0x3b0555fa	0.0020345435
7	0xbcfb734a	-0.030694623
8	0xbcca100c	-0.024665855
9	0x3c24b3d3	0.010052639
10	0xbdd1e575	-0.102488436
11	0xbd0c2f10	-0.03422457
12	0x3d08d271	0.033403818
13	0x3dad4756	0.08460872
14	0xbdb23147	-0.08700805
15	0xbdab44f4	-0.08362761

encoder.4.weight f4 [16]
0	0x3f7b821c	0.98245406
1	0x3f7ff847	0.99988216
2	0x3f830cbd	1.0238262
3	0x3f75fd81	0.9608994
4	0x3f86a13e	1.0517957
5	0x3f6eba13	0.93252677
6	0x3f7d5a63	0.98966044
7	0x3f82e590	1.0226307
8	0x3f6ff7f2	0.9373771
9	0x3f849d81	1.0360566
10	0x3f8125c2	1.0089648
11	0x3f7981c4	0.9746363
12	0x3f778c28	0.96698236
13	0x3f790b27	0.9728264
14	0x3f78d857	0.9720511
15	0x3f6bbf27	0.9208855

encoder.4.bias f4 [16]
0	0x3d56c645	0.05243518
1	0x3d1c3378	0.038135022
2	0x3dd876de	0.10569547
3	0x3e1abff1	0.15112282
4	0xbf05cbba	-0.5226399
5	0xbdaa6c49	-0.08321435
6	0xbc66cafb	-0.01408648
7	0x3e333e83	0.17504315
8	0x3e799a38	0.24375236
9	0x3cc9cc4c	0.02463355
10	0x3dabe695	0.083935894
11	0x3e4ef9d0	0.20212483
12	0x3dc09ed1	0.09405292
13	0x3d63a17e	0.055573933
14	0x3cd63f88	0.026153341
15	0x3d17f487	0.037098434

encoder.4.running_mean f4 [16]
0	0xbe2817e8	-0.1641537
1	0xbd7a785c	-0.06114994
2	0x3c9b2d5b	0.018942526
3	0x3e8efecc	0.2792877
4	0x3fcf7231	1.6206723
5	0x3e3c1f8e	0.18371412
6	0x3e864fa0	0.26232624
7	0xbe481740	-0.19540119
8	0xbb26a5d5	-0.0025428433
9	0x3e8b36c3	0.27190217
10	0x3e6486a9	0.22316994
11	0xbf2791d5	-0.654569
12	0xbe97b629	-0.29631165
13	0x3ecbd902	0.39814
14	0xbe1b134f	-0.15144084
15	0x3e548370	0.20753264

encoder.4.running_var f4 [16]
0	0x3ea1f85e	0.31634802
1	0x3ed6f011	0.4198003
2	0x3f1fda56	0.6244253
3	0x3e1e37de	0.15450999
4	0x3f689ce7	0.90864414
5	0x3ed165ad	0.40897885
6	0x3e017c9e	0.12645194
7	0x3e5c8b01	0.21537401
8	0x3e6220ec	0.22082871
9	0x3e1b950a	0.15193573
10	0x3e4ea2cc	0.2017929
11	0x3e8f48cd	0.2798523
12	0x3e047d78	0.12938488
13	0x3e2e1749	0.1700107
14	0x3e0688ba	0.13138095
15	0x3dfb96c9	0.12284619

encoder.6.weight f4 [32, 16, 3, 3]
0	0x3c615260	0.01375255
1	0x3d332757	0.04373869
2	0x3ce89f09	0.028396146
3	0xbda0e029	-0.07855255
4	0xbd4175d9	-0.04723153
5	0x3cfcdb3b	0.030866256
6	0xbdc606a8	-0.09669238
7	0xbdd7860e	-0.10523616
8	0x3cd53799	0.026027488
9	0x3d52cb97	0.05146369
10	0x3ce78b4e	0.028264668
11	0xbd420aed	-0.0473737
12	0x3d951050	0.07278502
13	0x3d313bb1	0.043269817
14	0x3d064b7d	0.032786835
15	0xbd9a4cc4	-0.07534173
16	0x3cffe9f6	0.031239491
17	0xbd04e16c	-0.03244154
18	0x3c93c5c0	0.01803863
19	0xbd3730e9	-0.04472438
20	0x3b3283f7	0.0027239302
21	0xbd53581d	-0.051597703
22	0x3cf2138d	0.029550338
23	0x3da27f13	0.07934394
24	0x3daa9599	0.08329315
25	0xbd409ebc	-0.04702638
26	0xbd8acc6a	-0.0677727
27	0x3cc309f1	0.023808451
28	0x3d15c4f2	0.036564775
29	0xbbf313b2	-0.0074181193
30	0x3d3dfe61	0.046385173
31	0x3df92772	0.12165727
32	0xbc75a032	-0.014991807
33	0x3c0fedd6	0.008784732
34	0x3c9505e9	0.018191295
35	0x3c9c398a	0.019070406
36	0x3cf541be	0.029938575
37	0x3d1eb48c	0.0387464
38	0xbd64d097	-0.05586299
39	0x3d45d74c	0.048301026
40	0xbc2a1cbf	-0.01038283
41	0xbbc3f1b6	-0.005979742
42	0x3bbd18d3	0.0057707815
43	0x3d4416f3	0.04787345
44	0xbd640c43	-0.055675756
45	0x3c2c73e5	0.010525678
46	0x3da4b32a	0.08041985
47	0x3d26fb17	0.0407668
48	0xbd216927	-0.03940692
49	0xbc87e826	-0.01659019
50	0x3cedbd26	0.029020857
51	0xbd7dfb11	-0.062007014
52	0xbc1bd15b	-0.009510363
53	0x3d83b3da	0.06430788
54	0x3a9ac772	0.0011808707
55	0xbb9d6b42	-0.004804046
56	0x3cd0e292	0.025498662
57	0xbd5707eb	-0.052497786
58	0x3c8941c8	0.016755
59	0x3d0180b2	0.031616874
60	0xbc011ffb	-0.00788116
61	0xbdaecef2	-0.085355654
62	0xbd1131f4	-0.03544803
63	0xbcdd011e	-0.026978072
64	0xbd0ab3db	-0.03386293
65	0x3961be0e	0.00021528473
66	0x3bae8a5e	0.0053265532
67	0x3da57486	0.08078866
68	0x3d5d1fbc	0.053985342
69	0x3d7b4936	0.061349116
70	0x3d9e55c7	0.077312045
71	0xbd7c6d27	-0.061627533
72	0x3c4167b7	0.011804513
73	0xbcaad4ca	-0.020853419
74	0xbd88fcc3	-0.066888355
75	0x3d9557bc	0.07292125
76	0x3d8d5224	0.06900433
77	0xbdde2630	-0.108471274
78	0x3d7d8194	0.061891153
79	0x3cbe0841	0.023197295
80	0x3d2c2d2e	0.042035274
81	0xbce29bc1	-0.02766216
82	0xbd82044c	-0.06348476
83	0x3c41e3fe	0.011834143
84	0xbdb8f2c8	-0.09030682
85	0x3c250f02	0.010074379
86	0xbdfd03eb	-0.12354263
87	0xbc7c05ea	-0.015382269
88	0xbcb7f880	-0.022457361
89	0xbd3a9f2c	-0.045561954
90	0x3d2bf88a	0.041985072
91	0xbd47c020	-0.04876721
92	0xbc8515b5	-0.016245702
93	0x3c516eed	0.012782794
94	0xbdb339c5	-0.08751253
95	0x3d103d36	0.035214625
96	0x3c993d30	0.018705934
97	0x3d05e4f5	0.032689054
98	0xbd2191f9	-0.03944585
99	0x3badaa2b	0.0052998266
100	0x3c842c1b	0.016134312
101	0x3bb98afb	0.0056623197
102	0x3d9a8735	0.0754532
103	0x3d13d314	0.03608997
104	0xbd87d012	-0.06631483
105	0x3dbf0ee8	0.09329015
106	0x3dbac089	0.091187544
107	0x3d128143	0.035767805
108	0x3d65d991	0.05611569
109	0x3d1222c7	0.035677698
110	0xbc18b990	-0.009321585
111	0x3d844992	0.06459345
112	0x3bb40790	0.0054940656
113	0xbcbdc5b5	-0.023165563
114	0xbdaebaa4	-0.085316926
115	0x3aa47bf8	0.0012549153
116	0xbb2da003	-0.002649308
117	0xbd522009	-0.051300082
118	0x3d2e2912	0.042519636
119	0x3d87107d	0.06594942
120	0xbd74fe41	-0.059812788
121	0xbd1909f8	-0.037363023
122	0x3d2824b9	0.041050646
123	0xbd2cceca	-0.042189397
124	0xbc130d3d	-0.008975324
125	0xbc74a4eb	-0.014931898
126	0x3c42e4a2	0.011895331
127	0xbda87f2c	-0.08227381
128	0x3c9a9867	0.0188715
129	0x3cea038e	0.028566148
130	0xbdc6a503	-0.09699442
131	0xbd9fdfd3	-0.07806363
132	0xbc930dfd	-0.017951006
133	0x3db73863	0.08946302
134	0xbc5c3107	-0.013439423
135	0x3d685c75	0.0567288
136	0xbd463d82	-0.048398502
137	0xbb70fd40	-0.0036772043
138	0xbd403ec7	-0.04693487
139	0xbd3d524d	-0.046221066
140	0xbcdb36ca	-0.026759524
141	0x3da17b89	0.078848906
142	0xbc22f45d	-0.009945956
143	0x3c65d646	0.014028138
144	0xbcf3d933	-0.029766655
145	0xbd59d9b3	-0.05318613
146	0xbc93a64c	-0.018023632
147	0xbd4e02bb	-0.050295573
148	0xbdf217d7	-0.11820953
149	0xbdee4b3c	-0.116354436
150	0xbcf88d1c	-0.030340724
151	0x3d479bb6	0.048732482
152	0x3c0d9bcb	0.008643101
153	0xbce6308d	-0.028099323
154	0x3d574f7e	0.052566044
155	0x3d22bf57	0.039733257
156	0xbd518118	-0.051148504
157	0x3d09a8c0	0.0336082
158	0xbdb13552	-0.08652748
159	0xbd717b62	-0.058955558
160	0x3ca55dfc	0.020186417
161	0xbba79b93	-0.0051149814
162	0xbcc105ff	-0.02356243
163	0x3b993b8b	0.0046762875
164	0xbd8a3065	-0.06747512
165	0x3da1112a	0.07864602
166	0xbd305baf	-0.043056186
167	0x3c8550aa	0.016273815
168	0x3b90ec46	0.0044226972
169	0x3d622f78	0.05522105
170	0xbcb57cb0	-0.022154182
171	0x3cec99a5	0.028881857
172	0xbc83b97a	-0.016079653
173	0x3d9b0afb	0.07570454
174	0xbd04184c	-0.032249734
175	0xbd8280a9	-0.06372196
176	0xbcb41c91	-0.021986278
177	0xbd6255b0	-0.0552575
178	0x3d4d2822	0.0500871
179	0xbcd0aad2	-0.025472078
180	0x3cb1dbb8	0.021711215
181	0x3c806165	0.015671441
182	0x3d77442e	0.060367756
183	0x3bdcadbc	0.006734578
184	0x3d80e3b5	0.06293432
185	0x3cd0c0f5	0.025482634
186	0x3da51626	0.08060865
187	0xbce5e707	-0.028064264
188	0xbd8a9b70	-0.067679286
189	0x3cbf4d0d	0.02335217
190	0xbcaf6515	-0.021410504
191	0xbcbd5e6b	-0.023116311
192	0xbac09402	-0.0014692547
193	0xbd604bf6	-0.054759942
194	0x3d7b33f1	0.061328832
195	0x3c1194ea	0.008885602
196	0x38db201e	0.00010448716
197	0x3d082d97	0.033246603
198	0xbd0cab7c	-0.034343228
199	0xbb912386	-0.0044292836
200	0xbce2d998	-0.027691647
201	0xbdaf8e0e	-0.08572017
202	0x3d09c726	0.03363719
203	0xbcfbb76e	-0.030727115
204	0xbd92ab79	-0.07161612
205	0x3d962c54	0.07332674
206	0x3cf03e52	0.029326592
207	0xbc8a3714	-0.016871966
208	0x3c932154	0.017960228
209	0x3d96b6cc	0.073590845
210	0xbd2d1ef6	-0.042265855
211	0x3cff7efc	0.03118848
212	0x3df0f562	0.11765553
213	0xbd054374	-0.03253503
214	0xbdce7218	-0.100803554
215	0xbba3f8d2	-0.005004027
216	0xbd1b770c	-0.03795533
217	0x3d728731	0.05921096
218	0xbd0ebf10	-0.03485018
219	0x3ce6cb3a	0.028173078
220	0x3ba30ec4	0.0049761254
221	0xbd611780	-0.054954052
222	0xbc27415d	-0.010208455
223	0x3cb3470d	0.021884466
224	0x3c48bd34	0.012252141
225	0xbd2a5c46	-0.041591905
226	0xbc836c9b	-0.016042998
227	0xbd7fbb8e	-0.062434725
228	0xbc711291	-0.014713899
229	0x3c5a9e37	0.013343385
230	0x3bbd2f9e	0.0057734987
231	0x3d2c84db	0.04211889
232	0xbd2620a0	-0.040558457
233	0xbd2dd416	-0.04243859
234	0xba237049	-0.00062346883
235	0x3c90ee55	0.01769177
236	0xbd67d906	-0.056603454
237	0x3d2cc31d	0.042178262
238	0xbdaaf557	-0.08347576
239	0x3d47e6e0	0.048804164
240	0xbd0963cf	-0.03354245
241	0xbe03738b	-0.12837045
242	0xbd65a56c	-0.05606596
243	0xbd091cd1	-0.033474747
244	0xbdbbfbf4	-0.091789156
245	0x3c410cae	0.011782808
246	0xb9002cbe	-0.00012223699
247	0xb7a03acc	-1.9100866e-05
248	0x3d524565	0.05133571
249	0xbd3e27d4	-0.0464247
250	0x3b17fb43	0.0023190535
251	0xbbdbee1b	-0.006711734
252	0x3da1deb1	0.07903803
253	0x3d40f097	0.047104444
254	0x3d51ca01	0.051218037
255	0xbcfdf4a2	-0.03100044

encoder.6.bias f4 [32]
0	0xbcc0f5b6	-0.023554664
1	0xbcac0f27	-0.021003319
2	0x3d5b3bb6	0.05352374
3	0xbd8609fb	-0.065448724
4	0xb9534987	-0.00020149919
5	0xbbfa563c	-0.0076396745
6	0xbd9fa514	-0.07795158
7	0xbd4ab6de	-0.049490802
8	0x3c856166	0.016281795
9	0x3d3facd8	0.046795696
10	0x3c0d3355	0.008618196
11	0x3d331bd3	0.043727707
12	0xbd0d4a06	-0.034494422
13	0x3d1ca1bb	0.038240176
14	0xbbd4f497	-0.006498884
15	0xbd1c39a0	-0.038140893
16	0x3cc795d0	0.024363428
17	0x3d60b70e	0.054862075
18	0x3d2771d8	0.040880054
19	0xbc2dd0ff	-0.010608911
20	0x3cb6029a	0.022218037
21	0x3d9f3800	0.07774353
22	0xbb699618	-0.0035642441
23	0xbd4eaba8	-0.050456673
24	0xbcb1f7f6	-0.021724682
25	0x3d0eeb88	0.03489259
26	0x3d16309b	0.036667448
27	0x3caaa100	0.020828724
28	0x3d8561e8	0.06512815
29	0x3da8b313	0.08237281
30	0xbae7e16b	-0.0017691081
31	0xbcd60bf0	-0.02612874

encoder.7.weight f4 [32]
0	0x3f73caa0	0.95231056
1	0x3f7fe533	0.99959105
2	0x3f800107	1.0000314
3	0x3f807a96	1.003741
4	0x3f79fa44	0.976475
5	0x3f7e0e2b	0.9924037
6	0x3f7c4683	0.9854509
7	0x3f767fe0	0.9628887
8	0x3f843a0a	1.0330212
9	0x3f82247d	1.0167385
10	0x3f7dc65a	0.99130785
11	0x3f7cbd58	0.98726416
12	0x3f7ad338	0.97978544
13	0x3f7cf7cf	0.98815626
14	0x3f81ca60	1.0139885
15	0x3f8219cd	1.0164124
16	0x3f802702	1.0011904
17	0x3f6ed9a3	0.9330084
18	0x3f7b8b41	0.9825936
19	0x3f7e96db	0.9944894
20	0x3f82ca52	1.0217993
21	0x3f82ac85	1.0208899
22	0x3f84a8e7	1.0364045
23	0x3f7cb69e	0.9871615
24	0x3f7fb1c0	0.998806
25	0x3f7ee78e	0.99572074
26	0x3f785681	0.97006994
27	0x3f7e1cd8	0.9926276
28	0x3f7db820	0.9910908
29	0x3f82f29e	1.0230291
30	0x3f6d4fa0	0.92699623
31	0x3f840772	1.0314772

encoder.7.bias f4 [32]
0	0x3d407cf6	0.046994172
1	0x3d8f633c	0.07001349
2	0x3d6e4d77	0.058179345
3	0x3d884b40	0.06654978
4	0x3dc07a18	0.093982875
5	0x3d3ea609	0.046545062
6	0x3d608cbc	0.054821715
7	0x3d6fc6c0	0.058539152
8	0x3d9c0928	0.07618934
9	0x3d9d07bb	0.0766749
10	0xbea91a72	-0.3302799
11	0x3cd65ad7	0.026166363
12	0x3d909df3	0.070613764
13	0x3d8e3f5c	0.069456786
14	0x3d0c6cdc	0.034283504
15	0xbe77fb0e	-0.24216864
16	0x3d9ba5fb	0.07600018
17	0x3daec8b3	0.08534374
18	0x3e169c03	0.14707951
19	0x3dad6546	0.08466582
20	0x3e2a41f6	0.16626725
21	0x3d8e5f57	0.069517784
22	0xbdc1d629	-0.09464676
23	0x3d9c1d0e	0.07622729
24	0x3d283a1f	0.041071054
25	0x3dc319e7	0.09526425
26	0x3d3bf107	0.04588416
27	0x3d0c8973	0.03431077
28	0x3d3c4ffa	0.04597471
29	0x3de513af	0.11185395
30	0xbdf1ba32	-0.11803092
31	0x3e255d5a	0.16148892

encoder.7.running_mean f4 [32]
0	0x3dab1f51	0.083555825
1	0xbe8800c3	-0.2656308
2	0xbe3a45f5	-0.18190749
3	0xbe897374	-0.26845896
4	0xbe2257bf	-0.15853785
5	0xbda33f25	-0.07971028
6	0xbe9857d8	-0.2975452
7	0xbe4a52ce	-0.1975815
8	0xbe0a4bde	-0.13505504
9	0xbf0b7d3c	-0.5448797
10	0x3f6b77a2	0.9197942
11	0xbf03ad6a	-0.51436484
12	0xbd820c2d	-0.063499786
13	0xbe9319e1	-0.28730682
14	0xbf1dc657	-0.6163077
15	0x3ef69ec9	0.48168018
16	0xbf262864	-0.6490538
17	0x3f2279e6	0.6346725
18	0xbee137ab	-0.43987784
19	0xbed9c6a5	-0.42534366
20	0xbf594496	-0.8487028
21	0xbe7fa642	-0.24965766
22	0x3e326456	0.17421088
23	0xbe23acb4	-0.1598385
24	0x3d85a240	0.06525087
25	0xbe8308fd	-0.25592795
26	0x3e857f98	0.2607391
27	0xbdf4354d	-0.11924229
28	0xbcafe4a1	-0.021471323
29	0xbe24cb67	-0.16093217
30	0x3ecca8e2	0.39972597
31	0xbed29563	-0.41129598

encoder.7.running_var f4 [32]
0	0x3e931d29	0.28733185
1	0x3e265172	0.16242006
2	0x3ee539df	0.44770715
3	0x3f494ae4	0.786299
4	0x3e03ed4f	0.12883495
5	0x3f5d4697	0.86435837
6	0x3e9a76ef	0.30168864
7	0x3e339048	0.17535508
8	0x3e9ad33e	0.3023929
9	0x3ecb45fc	0.3970183
10	0x3f321a7a	0.6957165
11	0x3e1ec3c9	0.15504374
12	0x3e862a10	0.26203966
13	0x3e79f024	0.24408013
14	0x3e9fc61c	0.31205833
15	0x3f4b9f1d	0.7953966
16	0x3f0d5e0b	0.55221623
17	0x3e3eb4ab	0.18623607
18	0x3e25bd93	0.16185598
19	0x3f14e7b7	0.5816607
20	0x3e8b9863	0.272647
21	0x3ee23348	0.4417975
22	0x3e5d2730	0.2159698
23	0x3f09b690	0.53794193
24	0x3eaf2822	0.34210306
25	0x3ebdbfe5	0.37060466
26	0x3e802eac	0.25035608
27	0x3f304787	0.6885914
28	0x3e47d9dd	0.19516702
29	0x3e159890	0.14608979
30	0x3ddfb461	0.109230764
31	0x3f15e54d	0.5855301

encoder.10.weight f4 [64, 32, 3, 3]
0	0x3b0a1f14	0.0021075653
1	0x3bdf852f	0.0068212966
2	0xbd0d874a	-0.03455285
3	0x3c6157c1	0.013753832
4	0x3c6c076f	0.014406069
5	0xbd016b50	-0.03159648
6	0xbc8fe825	-0.01756675
7	0x3d014548	0.031560212
8	0xbd0fbc96	-0.03509196
9	0xbd0a39bb	-0.033746462
10	0x3d5c6b5e	0.05381333
11	0xbca61a84	-0.020276316
12	0xbc5e5232	-0.013569402
13	0x3d1a9a82	0.037745006
14	0xbd0b5e61	-0.034025554
15	0x3d2220f6	0.039582215
16	0xbc6d0242	-0.01446587
17	0x3ba0911b	0.0049001104
18	0x3c649257	0.013950906
19	0x3a93ea63	0.0011285063
20	0x3c3706a8	0.011171021
21	0xba62d568	-0.0008653016
22	0x3d1b9366	0.037982367
23	0x3d67c791	0.056586806
24	0x3cb063dd	0.021531994
25	0x3d248a7f	0.040171143
26	0xbd293848	-0.04131344
27	0xbc1f5088	-0.00972379
28	0xbd2c42a8	-0.042055756
29	0xbca34c9a	-0.019933987
30	0x3c660bc3	0.01404089
31	0x3ca9d500	0.02073145
32	0x3d3704be	0.044682257
33	0x3d1632a8	0.036669403
34	0x3d58ef0f	0.05296236
35	0x3c8efb1a	0.017453719
36	0xbc3c7bc2	-0.011504116
37	0xbda139f9	-0.078723855
38	0xbc6bb550	-0.01438649
39	0xbc93174a	-0.017955441
40	0x3da188d6	0.078874275
41	0xbd008651	-0.031378094
42	0xbd35d1e4	-0.04438962
43	0xbda28a0b	-0.07936486
44	0x3bb0a947	0.005391273
45	0xba46db64	-0.00075857923
46	0xbcc3c499	-0.023897456
47	0x3c9210bb	0.017830243
48	0xba3ccd0b	-0.00072021846
49	0x3cf2bab6	0.029630046
50	0x3c816449	0.01579489
51	0xbd213415	-0.03935631
52	0xbd55fded	-0.052244116
53	0xbc7c28c0	-0.015390575
54	0x3d6154f0	0.055012643
55	0xbcc3d9d3	-0.023907578
56	0xbcbbcfe6	-0.022926282
57	0xbd830ecb	-0.06399306
58	0xbd40543e	-0.04695534
59	0x3cf62bb1	0.03005013
60	0xbb6d8174	-0.003624049
61	0x3c5cbc83	0.013472679
62	0x3c94c7fb	0.018161764
63	0x3d244467	0.040104296
64	0xbc99a66a	-0.01875611
65	0x3c83ca27	0.016087605
66	0xbdaf0928	-0.08546668
67	0xbc87e643	-0.01658929
68	0xbc18985a	-0.009313667
69	0x3bcc1e4b	0.006229197
70	0x3cf1688f	0.029468803
71	0xbd112900	-0.03543949
72	0xbda019e9	-0.07817442
73	0x3ae67591	0.0017582645
74	0x3d1d2a3f	0.038370367
75	0x3d3f7a81	0.04674769
76	0x3cb9215e	0.022598919
77	0xbd2d78fd	-0.04235171
78	0x3b456331	0.0030118937
79	0xbd1221d8	-0.035676807
80	0x3b63d18e	0.0034762355
81	0x3ce3319c	0.027733617
82	0xbdaa4020	-0.08313012
83	0xbcba3db0	-0.022734493
84	0x3cefe4a8	0.029283836
85	0x3ca804a3	0.020510023
86	0xbcd9f995	-0.026608268
87	0x3d3dbe79	0.046324227
88	0x3c9a98d7	0.018871708
89	0x3bbf7a6b	0.005843451
90	0x3bd92172	0.0066263014
91	0xbd55b71c	-0.05217658
92	0x3d01aaeb	0.03165714
93	0x3d88030c	0.06641206
94	0xbd1f386f	-0.03887218
95	0xbc344e1a	-0.011004949
96	0x3d292299	0.04129276
97	0x3c25615e	0.010094015
98	0x3d44b24a	0.048021592
99	0x3d311fc9	0.043243203
100	0x3ccab2be	0.024743434
101	0xbd67e0d8	-0.056610912
102	0xbd6114b7	-0.054951396
103	0x3da1fdc6	0.079097316
104	0xbc0faa2e	-0.008768601
105	0x3d13edc4	0.036115423
106	0x3c02a488	0.007973798
107	0xbcaa2b7a	-0.020772684
108	0xbc7f1a6d	-0.015570265
109	0x3c836ee8	0.016044095
110	0x3ccc00ce	0.024902727
111	0x3d15c87d	0.036568154
112	0xbc9742f5	-0.018464545
113	0x3c6fb1c5	0.014629786
114	0x3c6e550e	0.014546646
115	0x3c02d8bc	0.007986244
116	0xb9b812b3	-0.00035109147
117	0xbd8771f1	-0.066135295
118	0x3d6b9ee5	0.05752458
119	0xbc7106c0	-0.014711082
120	0x3c497761	0.012296529
121	0xbd468081	-0.048462395
122	0x3cbc9b9f	0.023023425
123	0xbc298fce	-0.010349227
124	0xbcf0ff03	-0.029418474
125	0x3d0a3ace	0.033747487
126	0xbb46b4f4	-0.0030320259
127	0xbc470dd9	-0.012149298
128	0xbc05e2d0	-0.008171752
129	0xbcd3715e	-0.025810894
130	0x3ce2429e	0.027619656
131	0xbd16ca0b	-0.036813777
132	0x3d28959e	0.04115831
133	0x3ca0d976	0.019634943
134	0x3cf55027	0.029945446
135	0xbd9c33fe	-0.07627104
136	0xbcda6f14	-0.026664294
137	0xbd6f1661	-0.05837095
138	0xbd086ab1	-0.033304874
139	0x3b4fb9e2	0.0031696488
140	0xbd1027f6	-0.03519436
141	0x3cdce74a	0.026965756
142	0xbcc55d60	-0.024092376
143	0x3cc2c9b0	0.023777813
144	0xbccd2f4d	-0.025046969
145	0x3cb01f3f	0.021499274
146	0xbcc45fd9	-0.023971485
147	0xbd204d84	-0.039136425
148	0x3ceda4b2	0.029009197
149	0x3d1b1349	0.03786019
150	0xbd10168d	-0.035177756
151	0xbd11f1e7	-0.035631087
152	0x3c5dc145	0.013534849
153	0x3d05ffa4	0.0327145
154	0xbd06b248	-0.032884866
155	0x3d11448c	0.035465762
156	0x3cbbc587	0.022921337
157	0x3c6fcf24	0.0146367885
158	0x3c94457f	0.018099545
159	0xbd3371e1	-0.043809775
160	0xbd0c53e0	-0.034259677
161	0xbd341422	-0.043964513
162	0xbd25d287	-0.040483978
163	0x3b8881bb	0.0041658557
164	0xbd6625aa	-0.056188263
165	0x3c52f53f	0.012875854
166	0x3d171a7e	0.0368905
167	0xb9b24966	-0.00034005492
168	0xbb443267	-0.0029937269
169	0x3d09790b	0.0335627
170	0xbc673195	-0.014110942
171	0xbcb02919	-0.021503972
172	0x3c550bc4	0.013003293
173	0xba77e9a3	-0.0009457117
174	0xbda3e440	-0.080025196
175	0x3c26e926	0.010187423
176	0x3c72418a	0.014786134
177	0x3d7cf469	0.061756525
178	0x3c1d3122	0.009594234
179	0x3d3f832f	0.046755966
180	0x3d1ff190	0.03904873
181	0xbd5eef83	-0.054427635
182	0xbc566567	-0.0130857
183	0x3d14537f	0.03621244
184	0x3d48d050	0.049026787
185	0x3b7674a9	0.0037606156
186	0xbbfa2815	-0.0076341727
187	0xbba302de	-0.004974707
188	0x3aec7845	0.0018041214
189	0x3d94673c	0.07246253
190	0x3d24ed3b	0.040265303
191	0x3d3d83e0	0.046268344
192	0xbd2e6426	-0.042575978
193	0x3c8471fc	0.016167633
194	0x3d34406b	0.044006746
195	0x3d85dc7e	0.06536196
196	0x3d280366	0.041018866
197	0xbd06edc7	-0.032941606
198	0xbc459038	-0.01205831
199	0xbc4847b5	-0.012224128
200	0x3d0d5d3d	0.034512747
201	0xbd47e406	-0.048801444
202	0x3c9315bd	0.017954702
203	0xbcaecff0	-0.021339387
204	0xbc8182e4	-0.015809484
205	0xbc8cc994	-0.017185964
206	0xbc01ea38	-0.007929377
207	0xbca5ad89	-0.02022435
208	0xbd758d5b	-0.05994926
209	0xbae9f4a2	-0.0017849396
210	0x3be73ff4	0.0070571844
211	0x3d13b0c2	0.03605724
212	0x3b52633f	0.0032102612
213	0x3c142ae3	0.009043428
214	0x3d94c2be	0.072637066
215	0x3d5e033c	0.054202303
216	0xbb903bb4	-0.0044016484
217	0x3d5c560f	0.05379301
218	0xbcdc3b5c	-0.026883774
219	0x3cfec09d	0.031097705
220	0xbd51b021	-0.05119336
221	0x3cf3e591	0.029772552
222	0xbd6c31c4	-0.057664648
223	0x3d59bf79	0.05316112
224	0x3c05df0a	0.008170852
225	0x3d0ce063	0.03439368
226	0xbd1325bb	-0.035924654
227	0x3c0dd183	0.0086559085
228	0x3d811eac	0.06304678
229	0xbd486732	-0.04892654
230	0x3d57214a	0.05252198
231	0x3a311a57	0.0006755939
232	0x3d62ce44	0.05537249
233	0x3cc166c8	0.02360858
234	0x3c62de18	0.013846897
235	0xbd1b87ad	-0.037971187
236	0xbca37c5d	-0.019956762
237	0x3d0b60d4	0.03402789
238	0x3da4d842	0.080490604
239	0xbd6493d7	-0.055805054
240	0x3b6c91ae	0.0036097574
241	0xbd3102a2	-0.0432154
242	0x3bfceda9	0.007718761
243	0x3d5a50fb	0.053299885
244	0xbd01bc7b	-0.03167389
245	0x3c494866	0.012285328
246	0x3983a152	0.0002510646
247	0xbd814c8b	-0.063134275
248	0xbd2d6291	-0.04233033
249	0x3d6f62b1	0.05844373
250	0x3d41d22e	0.047319584
251	0xbd0c803f	-0.034301993
252	0x3d649099	0.05580196
253	0xbca208f4	-0.01977966
254	0xbc9da6ac	-0.019244514
255	0xbc1ac0b5	-0.009445359

encoder.10.bias f4 [64]
0	0x3d152efc	0.03642176
1	0x3cf5ec39	0.030019866
2	0x3d43f9ab	0.047845524
3	0xbd20c1d6	-0.039247356
4	0x3d5326ed	0.051550794
5	0x3d34ad8e	0.044110827
6	0xbd51e88f	-0.051247176
7	0x3d3ef18e	0.046617083
8	0x3c157e63	0.009124371
9	0xbbce616d	-0.006298235
10	0xbd3beff7	-0.045883145
11	0x3aac10c4	0.0013127555
12	0x3d534438	0.05157873
13	0xbd1f3b65	-0.038875002
14	0x3ce0b8da	0.027431894
15	0xbc0da86a	-0.00864611
16	0xbd5be3a7	-0.053683903
17	0x3d310bb4	0.04322405
18	0x3cb636a8	0.022242859
19	0x3d2c2ed8	0.04203686
20	0x3c845920	0.01615578
21	0xbc6bef88	-0.01440037
22	0xbd35c2e4	-0.044375315
23	0xba7f6b80	-0.0009743497
24	0xbd56e110	-0.05246073
25	0x3d227a39	0.03966734
26	0x3c1dfe46	0.009643143
27	0x3d01f7f6	0.031730615
28	0xbd42c0b9	-0.047547076
29	0x3d09d877	0.033653703
30	0x3d1b3038	0.03788778
31	0x3bedfeea	0.007263054
32	0x3c5c0c5e	0.013430683
33	0x3d6f7643	0.058462393
34	0xbcd9f718	-0.026607081
35	0x3c4789e5	0.012178873
36	0x3d5630cf	0.05229264
37	0xbc68d699	-0.01421132
38	0xbc42d7c1	-0.01189226
39	0xbd4fb745	-0.05071189
40	0x3c5767d6	0.013147315
41	0x3d5d5527	0.054036286
42	0xbd2876d5	-0.041128952
43	0xbd0eed07	-0.034894016
44	0x3d5b795b	0.05358253
45	0x3d566475	0.052341897
46	0xbd6c2824	-0.05765547
47	0xbd3d8a42	-0.04627443
48	0x3b049dbc	0.0020235619
49	0xbc9e4fa6	-0.019325089
50	0x3b44aeba	0.0030011372
51	0xbd5b8051	-0.05358917
52	0x3ca850bb	0.020546308
53	0xbd0bbbe2	-0.034114726
54	0xbc9f82d4	-0.019471563
55	0xbd449099	-0.04798946
56	0x3d5b98a9	0.053612385
57	0x3d68d6ee	0.056845598
58	0x3d6c3287	0.057665374
59	0xb9401ccf	-0.00018321279
60	0xbc5c6734	-0.01345234
61	0xbd4533e7	-0.0481452
62	0x3d11ba92	0.035578318
63	0x3ce04e45	0.027381072

encoder.11.weight f4 [64]
0	0x3f7fb69f	0.9988803
1	0x3f81cccc	1.0140624
2	0x3f8028ff	1.0012511
3	0x3f828fd5	1.0200144
4	0x3f7b9261	0.9827023
5	0x3f79d3a6	0.97588575
6	0x3f8155e3	1.0104336
7	0x3f84a415	1.0362574
8	0x3f80087f	1.0002593
9	0x3f7cfa03	0.9881899
10	0x3f8096fa	1.0046074
11	0x3f80d06d	1.0063607
12	0x3f7d7fa0	0.99022865
13	0x3f832945	1.024697
14	0x3f7faaf7	0.99870247
15	0x3f7b5ad7	0.98185486
16	0x3f7e754c	0.9939773
17	0x3f81ad5d	1.0131031
18	0x3f7ad220	0.97976875
19	0x3f82bb5b	1.0213426
20	0x3f7f2e24	0.9967978
21	0x3f81ad74	1.0131059
22	0x3f7e5f5b	0.9936425
23	0x3f7cd722	0.98765767
24	0x3f7fa0ca	0.9985472
25	0x3f7f5ae4	0.99748063
26	0x3f81b75f	1.0134085
27	0x3f7e912e	0.99440277
28	0x3f7f1fe6	0.9965805
29	0x3f8044df	1.0021018
30	0x3f7d7ebd	0.9902151
31	0x3f7a6681	0.9781266
32	0x3f7ec3b5	0.99517375
33	0x3f823cd9	1.0174819
34	0x3f80ff86	1.007798
35	0x3f806422	1.0030558
36	0x3f80f54d	1.007486
37	0x3f7ddc1b	0.9916398
38	0x3f7cf42f	0.98810095
39	0x3f7c4568	0.98543406
40	0x3f806667	1.0031251
41	0x3f7b0947	0.9806103
42	0x3f751710	0.95738316
43	0x3f782284	0.96927667
44	0x3f81b75d	1.0134083
45	0x3f8142c1	1.0098497
46	0x3f7ceda3	0.98800105
47	0x3f822422	1.0167277
48	0x3f807ec9	1.0038692
49	0x3f801ba4	1.0008435
50	0x3f81c76e	1.0138986
51	0x3f7dffa4	0.992182
52	0x3f80016a	1.0000432
53	0x3f7eede2	0.9958173
54	0x3f7c3fb0	0.9853468
55	0x3f81dfc5	1.0146414
56	0x3f80cea2	1.0063059
57	0x3f814c0c	1.0101333
58	0x3f7f9d77	0.9984965
59	0x3f7847c2	0.96984494
60	0x3f7b34a5	0.98127204
61	0x3f80ed99	1.0072509
62	0x3f7e3d58	0.99312353
63	0x3f7fd8b2	0.99940026

encoder.11.bias f4 [64]
0	0x3d863c21	0.065544374
1	0xbe07e702	-0.13271716
2	0x3d63cbbe	0.055614226
3	0xbd6b327e	-0.0574212
4	0x3ad97b05	0.0016592449
5	0xbd42003d	-0.04736351
6	0xbcc1d035	-0.023658851
7	0x3cf646c2	0.030063037
8	0x3d163089	0.03666738
9	0xbce0aca5	-0.027426073
10	0x3d647927	0.055779602
11	0xbdabda94	-0.083913
12	0xbcc37675	-0.023860196
13	0xbe3085a1	-0.17238475
14	0x3cbca4ab	0.023027739
15	0xbd38800b	-0.045043986
16	0x3b9a0d33	0.0047012805
17	0x3d42516f	0.047440942
18	0xbc0a8b69	-0.0084560895
19	0x3cb88a00	0.022526741
20	0xbc10a8bb	-0.008829291
21	0xbb264ba1	-0.0025374668
22	0xbd652db6	-0.055951796
23	0x3c8afa51	0.016965063
24	0x3c8c3009	0.017112749
25	0x3d3477dd	0.044059623
26	0xbc3b39f5	-0.011427392
27	0x3d8e59c4	0.06950715
28	0x3d5a0c2d	0.053234268
29	0x3c9db4af	0.019251196
30	0x3c773caf	0.015090152
31	0xbd67f20e	-0.056627326
32	0xbc05d9bf	-0.0081695905
33	0xbc832429	-0.016008453
34	0x3dbc5c0a	0.091972426
35	0x3d11e25b	0.03561626
36	0xbdf03e04	-0.117305785
37	0x3d8ebc95	0.06969563
38	0x3caceeb6	0.02110992
39	0x3ca292b6	0.019845348
40	0x3ced6b65	0.028981874
41	0x3d2ebe3f	0.0426619
42	0xbc857e5f	-0.01629561
43	0xbd97b5c4	-0.07407716
44	0x3d7fc7d0	0.062446415
45	0x3c8e4361	0.017366113
46	0x3d1acca9	0.037792835
47	0x3d75311a	0.05986128
48	0x3ce12012	0.027481113
49	0xbd1b3ab2	-0.037897773
50	0x3d1fa707	0.03897765
51	0x3cf88784	0.030338056
52	0x3d5a0b79	0.053233597
53	0x3b771528	0.003770182
54	0x3cc35221	0.023842873
55	0x3daf8d60	0.08571887
56	0x3c0ed6c3	0.008718195
57	0x3cd783db	0.02630799
58	0xbbb17894	-0.0054159854
59	0xbd81e913	-0.063432835
60	0x3c5146d3	0.0127732335
61	0x3d58abe4	0.052898303
62	0x3ca872e7	0.020562602
63	0x3d1d1ba0	0.038356423

encoder.11.running_mean f4 [64]
0	0x3ea86452	0.32889038
1	0xbdaf2fb0	-0.085540175
2	0x3e47425f	0.19458912
3	0xbe60226f	-0.21888135
4	0x3dc3b806	0.09556584
5	0x3e8687df	0.26275536
6	0xbf8f3ddc	-1.1190753
7	0xbe0b6a76	-0.1361483
8	0xbf6f1702	-0.9339448
9	0xbf432af0	-0.7623739
10	0xbf255d8d	-0.6459587
11	0xbee78c07	-0.4522402
12	0xbed5493b	-0.41657433
13	0xbef2b9f1	-0.47407487
14	0xbeccc177	-0.39991352
15	0x3ec9156c	0.39274156
16	0xbf2237c9	-0.6336637
17	0xbeb71f77	-0.35766193
18	0xbeef00c9	-0.46680287
19	0xbddf4b57	-0.10903042
20	0xbd62ff60	-0.055419326
21	0xbeb8c87f	-0.36090466
22	0xbf66a536	-0.9009584
23	0x3efd074e	0.49419636
24	0xbe99b1ad	-0.30018368
25	0xbe35dc66	-0.17759857
26	0xbed88c7c	-0.4229468
27	0xbee364bb	-0.4441279
28	0xbe5fb80a	-0.21847549
29	0x3eaa0d9a	0.33213502
30	0xbe5ba728	-0.21450484
31	0x3f1acd6c	0.604697
32	0xbeea849b	-0.45804295
33	0xbebbc77a	-0.36675626
34	0xbe80045f	-0.25003335
35	0xbe80c293	-0.25148448
36	0x3e7825d1	0.24233176
37	0x3e946afd	0.28987876
38	0x3e34188d	0.1758749
39	0x3f68102e	0.9064969
40	0x3e182f33	0.14861755
41	0xbe8a39c9	-0.26997212
42	0x3f679e61	0.9047604
43	0xbe69b111	-0.22821452
44	0xbef9102b	-0.48645148
45	0xbeac6cfc	-0.33676898
46	0x3ea9f56e	0.3319506
47	0xbecaebfe	-0.39633173
48	0x3e09c52f	0.13454126
49	0xbf1d406d	-0.6142643
50	0xbee6a0a3	-0.4504443
51	0xbef47349	-0.47744206
52	0x3e8df44b	0.27725443
53	0x3d2ac7b5	0.04169436
54	0xbe3f0cc1	-0.18657209
55	0x3e0f02f6	0.13965973
56	0xbf117d81	-0.5683213
57	0xbf2181ae	-0.630885
58	0xbed683ce	-0.41897434
59	0x3e90ae65	0.28258052
60	0xbe9a81ac	-0.30177057
61	0xbe87c796	-0.2651946
62	0x3e6b43ed	0.2297513
63	0x3d560f52	0.052260704

encoder.11.running_var f4 [64]
0	0x3e5c270f	0.21499275
1	0x3eb644a1	0.35599235
2	0x3e860ee4	0.26183236
3	0x3e6d749a	0.23189011
4	0x3e94b095	0.2904097
5	0x3eb56773	0.35430488
6	0x3f2164b9	0.63044316
7	0x3e2ceb7c	0.16886705
8	0x3edb6696	0.42851704
9	0x3e882383	0.26589593
10	0x3ea21629	0.31657532
11	0x3e886bf0	0.2664485
12	0x3e9e1381	0.30874255
13	0x3f0534c6	0.5203365
14	0x3f137898	0.57605886
15	0x3ed94dd4	0.4244219
16	0x3eba69e6	0.3640892
17	0x3ef00a4b	0.46882853
18	0x3ef0bd9a	0.47019655
19	0x3ebc2c3f	0.36752507
20	0x3e5825a6	0.21108112
21	0x3e4d74ad	0.2006404
22	0x3e5ab2dd	0.21357293
23	0x3e8ec201	0.27882388
24	0x3e68586f	0.22689985
25	0x3e59f144	0.21283442
26	0x3ea206bf	0.31645772
27	0x3ea1a8fe	0.31574243
28	0x3e5f8314	0.21827346
29	0x3f2597e1	0.64684874
30	0x3ed38f98	0.4132049
31	0x3f111934	0.5667908
32	0x3e8b9130	0.27259207
33	0x3e856430	0.26053
34	0x3f09d012	0.53833115
35	0x3ea2bfb0	0.3178687
36	0x3eebf734	0.4608704
37	0x3e262910	0.16226602
38	0x3e7a22e5	0.24427374
39	0x3ec4ef1a	0.3846367
40	0x3e3a8723	0.18215613
41	0x3e9bfbc3	0.30465516
42	0x3f2e6873	0.68128127
43	0x3ed13e43	0.40867814
44	0x3ec0ee73	0.37681922
45	0x3eed6f48	0.46373963
46	0x3e266e1c	0.16252941
47	0x3f292a7b	0.66080445
48	0x3edaacf5	0.4271008
49	0x3ea66055	0.3249537
50	0x3efc52f6	0.49282044
51	0x3e8f322c	0.27967966
52	0x3e8c2f82	0.27379996
53	0x3e6e94fe	0.23299024
54	0x3e2763e4	0.16346699
55	0x3e2ed9da	0.17075291
56	0x3ea1ac95	0.31576982
57	0x3f23ab55	0.63933307
58	0x3e55d162	0.20880654
59	0x3f0ba490	0.5454798
60	0x3e3c3fd0	0.18383718
61	0x3e90f476	0.2831151
62	0x3ec69e4a	0.3879264
63	0x3e2edde6	0.17076835

encoder.13.weight f4 [32, 64, 3, 3]
0	0x3c93d05b	0.018043688
1	0xbcadd605	-0.021220217
2	0xbcd0931e	-0.025460776
3	0x3bec972e	0.0072201705
4	0xbd02a019	-0.031890962
5	0xbd8508c5	-0.06495813
6	0xbc8e8f2a	-0.01740225
7	0x3d01226d	0.03152697
8	0xbcdd7846	-0.02703489
9	0xbcca1d6e	-0.024672236
10	0x3b96467e	0.00458604
11	0xbd1cbb68	-0.038264662
12	0x3c84cee7	0.01621194
13	0xba8719d5	-0.0010307381
14	0xbc67da2f	-0.01415114
15	0x3c9e3f27	0.019317223
16	0xbc303a56	-0.010756096
17	0x39ccb4b6	0.00039044552
18	0x3c849d5f	0.016188322
19	0x3d1e2db0	0.03861779
20	0xbbcd7b5f	-0.0062708105
21	0xbd14d11e	-0.036332242
22	0x3cb2a733	0.021808242
23	0xbd1cd532	-0.038289256
24	0xbd130c58	-0.035900444
25	0x3c8f6526	0.017504286
26	0x3c6aa3ff	0.014321326
27	0xbcb6e914	-0.022327937
28	0x3d140543	0.03613783
29	0xbd0f38d5	-0.03496631
30	0xbc23eda3	-0.0100053875
31	0x3d76c936	0.060250483
32	0x3bf8b6a5	0.0075901323
33	0xbc8095c0	-0.015696406
34	0xbb81c59c	-0.0039603245
35	0xbc84b557	-0.01619975
36	0xbc985cb2	-0.018598888
37	0x3b361665	0.0027784344
38	0x3c4c012d	0.012451452
39	0xbd0e602e	-0.034759693
40	0x3bca65f7	0.006176706
41	0x3c9fe210	0.019516975
42	0xb9f6e8a2	-0.000470941
43	0x3c6dc80c	0.014513027
44	0x3c678d9c	0.014132883
45	0xbcd87e6d	-0.026427472
46	0x3d54ca17	0.05195054
47	0x3c8a25bd	0.016863698
48	0xbc644b16	-0.0139339175
49	0x3c44e6f9	0.012017959
50	0x3c9da2d8	0.019242689
51	0xbc3cb9a4	-0.01151887
52	0x3be9f097	0.0071392762
53	0xbc6f5548	-0.014607735
54	0x3c9f8d5a	0.019476581
55	0xb9611d29	-0.00021468535
56	0x3d088e0b	0.033338588
57	0x3d403ff1	0.04693598
58	0x3dca608e	0.098816976
59	0x3d0fe599	0.03513107
60	0x3d084842	0.033272035
61	0x3d4869da	0.048929073
62	0x3cef02eb	0.029176196
63	0x3c90959d	0.017649466
64	0xbd5d9a18	-0.054102033
65	0xbbf945b0	-0.0076071844
66	0xbcdfd854	-0.027324833
67	0x3d42b94e	0.04754
68	0xbd610e10	-0.05494505
69	0xbc99f814	-0.01879505
70	0xbb118a7e	-0.0022207792
71	0xbd0dd321	-0.034625176
72	0xbc3f230f	-0.011666073
73	0xbcffd1cb	-0.031227967
74	0xbd0905ef	-0.033452924
75	0xbcaafc6d	-0.02087232
76	0x3d4881e9	0.048952017
77	0x3ced0a78	0.028935656
78	0xbc158c28	-0.009127654
79	0x3cdb7dcf	0.026793389
80	0xbd0eb0ae	-0.034836464
81	0x3c81ba15	0.015835801
82	0x3c16566f	0.009175881
83	0xbcc588d8	-0.024113104
84	0x3d430801	0.047615055
85	0xbc2d0748	-0.010560818
86	0xbcaea6d4	-0.021319784
87	0xbbba23ce	-0.005680538
88	0x3b9bb4e2	0.0047517875
89	0xb9b02536	-0.0003359706
90	0xbb187327	-0.0023261996
91	0xbc9b0f23	-0.018928116
92	0x3c19c53e	0.009385405
93	0x3bc9580c	0.006144529
94	0xbb2f4772	-0.0026745466
95	0xbd37bd32	-0.044858165
96	0xbcda1952	-0.026623402
97	0xbcf29be3	-0.029615348
98	0xbd307001	-0.043075565
99	0x3d10d19d	0.035356153
100	0xbd41efa5	-0.047347683
101	0xbbe3dee5	-0.0069540613
102	0xbbe5893d	-0.0070048855
103	0xbbf8d54c	-0.0075937863
104	0x3d5b38a6	0.05352082
105	0xbc3ef9cb	-0.011656235
106	0xbc346f9f	-0.011012941
107	0x3c8204bc	0.015871398
108	0xbad0b121	-0.0015921929
109	0x3d2804b9	0.04102013
110	0xbb64568f	-0.0034841632
111	0xbc736b39	-0.014857107
112	0x3d3ee6d9	0.046606872
113	0xbc27e3b8	-0.0102471635
114	0xbbb991bb	-0.0056631244
115	0xbc14c442	-0.009079995
116	0xbc2db0c6	-0.010601228
117	0xbcf3d1cf	-0.02976313
118	0x3bd0cd56	0.006372134
119	0x3c8d0707	0.017215265
120	0xbbf240b9	-0.0073929694
121	0x3d91dee6	0.07122593
122	0x3d53ea89	0.051737342
123	0xbb967815	-0.0045919516
124	0xbc02762f	-0.0079627475
125	0x3c7f1c41	0.015570701
126	0x3c053361	0.0081299255
127	0x3c9ebdeb	0.01937767
128	0xbc40afe6	-0.011760687
129	0xbc9d95e1	-0.019236507
130	0xbc836030	-0.016037077
131	0xbd39fd27	-0.04540744
132	0x3b27fedd	0.0025634088
133	0x3ca85129	0.020546513
134	0x3c3fd8ab	0.0117093725
135	0x3c31f7f5	0.01086234
136	0xbcfd32c3	-0.030907994
137	0x3d5d18e1	0.053978804
138	0xbac3fcf5	-0.0014952706
139	0xbc206d18	-0.009791635
140	0x3d57e459	0.052708004
141	0x3c142cfe	0.00904393
142	0x3cad4b18	0.021153972
143	0x3d75bc48	0.059994012
144	0x3d7b4ec4	0.061354414
145	0xbc7df3a1	-0.01549998
146	0x3c825e43	0.015914088
147	0x3d1b67ab	0.037940662
148	0x3cbca849	0.023029463
149	0x3d529d63	0.051419627
150	0x3d42bfcd	0.047546197
151	0xbbc3f168	-0.0059797056
152	0x3c90db0f	0.01768258
153	0x3c5eea65	0.013605689
154	0x3d7e5127	0.06208911
155	0x3b712e55	0.0036801298
156	0x3b113b5b	0.0022160623
157	0x3d831c39	0.064018674
158	0x3bdf935f	0.006822988
159	0x3caf5ea2	0.02140743
160	0xbc4f1851	-0.012640075
161	0xbbe0c034	-0.00685885
162	0x3d0b8e61	0.03407133
163	0xbcc91dc1	-0.02455032
164	0x3ca8552f	0.020548431
165	0xbb69249d	-0.0035574802
166	0xbd7913d3	-0.06080992
167	0xbc8f9250	-0.017525822
168	0x3c952a82	0.018208746
169	0xbd39f069	-0.04539529
170	0x3b739ac1	0.0037171098
171	0x3c810f5c	0.015754394
172	0x3c922903	0.017841822
173	0xbce9d312	-0.028543029
174	0x3cec4e46	0.028845917
175	0xbba79511	-0.0051142056
176	0xbdabb78e	-0.0838462
177	0x3bbc90f0	0.0057545826
178	0x3c8afec7	0.01696719
179	0xbc424040	-0.011856139
180	0x39442972	0.00018707456
181	0xbb9c32a8	-0.004766781
182	0xbc0807aa	-0.0083026085
183	0xbd706d72	-0.058698125
184	0xbb7f4997	-0.0038953775
185	0xbd1ccecd	-0.038283158
186	0xbcb4a63e	-0.022051927
187	0xbb88d37d	-0.004175602
188	0x3ab9bc8e	0.0014170574
189	0x3c9b7dd0	0.01898089
190	0xbcbc3cb8	-0.022978172
191	0xbcb943c4	-0.022615321
192	0xbcc636a3	-0.024195975
193	0xbcfed20b	-0.031106016
194	0x3ca4433d	0.020051593
195	0xbb4af33d	-0.0030967735
196	0x3d25ff51	0.04052669
197	0xbd170dab	-0.03687827
198	0x3d0b7f0e	0.034056716
199	0x3cae0c48	0.02124609
200	0x3c5e5f04	0.013572458
201	0x3c5858e0	0.013204783
202	0x3d2bc175	0.041932542
203	0xbb9517ca	-0.004549955
204	0x3c615385	0.013752823
205	0x3ce18c6e	0.027532782
206	0x3c4a512d	0.012348455
207	0x3b908d60	0.0044113845
208	0x3d0f9475	0.03505369
209	0xbc5cfabd	-0.013487515
210	0x3bc7757d	0.0060870037
211	0x3cce3009	0.02516939
212	0xbc91a153	-0.01777712
213	0xbcd30a2e	-0.02576169
214	0x3bfb5ccc	0.0076709744
215	0xbcee3013	-0.029075658
216	0xbcae4400	-0.02127266
217	0x3d743ad3	0.05962641
218	0x3b856091	0.0040703495
219	0xbb42aaf7	-0.0029703954
220	0x3b97a4bf	0.0046277936
221	0x3a6fd9ce	0.0009149582
222	0x3d1492eb	0.036272924
223	0x3d5a41cd	0.05328541
224	0x3cd372bc	0.025811546
225	0xbc8820f6	-0.01661728
226	0xbc0cef73	-0.008602011
227	0xbd367ca4	-0.04455246
228	0x3d282249	0.041048322
229	0xbc8ee243	-0.017441874
230	0xbd949f2c	-0.07256922
231	0xbbd2fb27	-0.006438631
232	0x3b7f5ae8	0.0038964096
233	0xbc1b66b1	-0.009484933
234	0x3c7e452c	0.015519422
235	0xbb747b4c	-0.0037304936
236	0x3cc4153a	0.023935903
237	0x3c942c49	0.018087523
238	0x3d8f4b57	0.06996792
239	0xba41d8f7	-0.0007394696
240	0xbbe01dfd	-0.0068395124
241	0x3ad8ba40	0.0016534999
242	0x3ba96dcc	0.0051705595
243	0xbbe0ada3	-0.0068566366
244	0x3c9250ad	0.017860735
245	0xbbe15af3	-0.006877297
246	0xbd5916e7	-0.053000357
247	0x3c62a836	0.01383405
248	0xbbada311	-0.00529898
249	0xbd01a047	-0.031646993
250	0x3d01af60	0.03166139
251	0xbbf3f821	-0.0074453508
252	0xbbba35a9	-0.0056826663
253	0xbd45b3a2	-0.048267014
254	0x3cd05ea8	0.02543576
255	0x3d369d79	0.04458377

encoder.13.bias f4 [32]
0	0x3cfdb366	0.030969333
1	0x3cd2d8b6	0.025738101
2	0x3ce11966	0.027477931
3	0xbcdcf3ce	-0.026971724
4	0x3c8b1ef0	0.016982526
5	0xbd10335b	-0.035205226
6	0xbc07d796	-0.008291146
7	0xbd28947f	-0.041157242
8	0x3cef31a6	0.029198479
9	0xbd0f98eb	-0.035057943
10	0x3c86d12b	0.016457161
11	0x3ced16a3	0.028941458
12	0x3c5f1236	0.013615182
13	0xbc5bc38b	-0.01341332
14	0xbccae7fb	-0.02476882
15	0xbca435c6	-0.020045172
16	0xbcd157e3	-0.025554603
17	0xba6d1a35	-0.00090447377
18	0x3b885ca0	0.0041614324
19	0x3c36bd9b	0.011153604
20	0x3cdc9ffb	0.026931753
21	0x3d236563	0.03989161
22	0xbc8c7a3b	-0.017148128
23	0x3ce46cf8	0.027883992
24	0xbc9fa01b	-0.019485524
25	0xbd2a3b60	-0.04156053
26	0xbce3a9c3	-0.02779091
27	0xbcbafa1b	-0.022824338
28	0x3d2353f8	0.039875
29	0x3b5ae7b7	0.0033402273
30	0x3c83fe83	0.016112572
31	0xbc4d5a51	-0.01253374

encoder.14.weight f4 [32]
0	0x3f80bdd1	1.0057927
1	0x3f858647	1.0431603
2	0x3f80cdbf	1.0062789
3	0x3f7a3dab	0.9775035
4	0x3f796df0	0.97433376
5	0x3f7bfa1c	0.9842851
6	0x3f7bc996	0.9835447
7	0x3f8612b7	1.0474461
8	0x3f7fd291	0.99930674
9	0x3f803fae	1.0019433
10	0x3f7113b0	0.94170666
11	0x3f7186a5	0.94346076
12	0x3f77da88	0.9681783
13	0x3f7ed7ca	0.9954802
14	0x3f77d829	0.9681421
15	0x3f783cd5	0.9696782
16	0x3f7a5eb0	0.9780073
17	0x3f808b3f	1.0042495
18	0x3f774fc1	0.9660607
19	0x3f7ea23e	0.9946631
20	0x3f810e64	1.0082517
21	0x3f81f9ba	1.0154335
22	0x3f83bc00	1.0291748
23	0x3f8d7ed9	1.1054336
24	0x3f7c52dc	0.98563933
25	0x3f808f48	1.0043726
26	0x3f832525	1.0245711
27	0x3f79d130	0.9758482
28	0x3f823c28	1.0174608
29	0x3f76f410	0.9646616
30	0x3f847935	1.034949
31	0x3f78bdda	0.9716469
